paper_imp/user_classifier.pt (torch, 967558 bytes, 19 tensors)

fc1.weight f4 [256, 768]
0.0073654884 -0.0057329307 -0.022701388 -0.002573193 0.03354105 0.003897935 0.031700406 0.0061614225
-0.022516781 0.008526309 0.018124128 -0.017473344 0.016856993 0.028672697 -0.032629732 0.018537063
-0.0073099397 -0.03628689 0.010844913 0.034076475 -0.0019983707 -0.026260044 0.03507655 -0.021148613
0.033003192 0.009543609 -0.039186887 0.00675822 0.018399788 -0.020907793 -0.012043089 -0.008973289
-0.01651663 0.024192192 0.033259585 -0.013615736 0.027372621 0.016138086 -0.011605944 0.035404667
0.030446343 0.021982042 0.028260231 0.0046197446 -0.013172974 0.03479919 -0.028926553 -0.012748881
-0.018350918 0.021685382 0.017401438 -0.031673327 0.013023746 -0.013154119 0.021598035 0.022729134
-0.03469303 -0.029060569 -0.035274122 0.020068958 -0.03160526 -0.0014729778 0.0029790648 0.023717986
-0.018756516 0.02151036 0.027388733 -0.021360368 -0.011837557 -0.014951079 0.00068773597 -0.008371811
-0.0042158053 -0.019687353 0.037342068 -0.015071723 0.0061590066 -0.031607937 -0.0023099664 -0.029753082
-0.018166821 0.034065347 0.017020613 0.0021715781 0.01499737 -0.004717741 0.0067780265 0.025577905
0.03421772 0.018069282 0.0008035587 0.022819916 -0.01563436 0.00687708 -0.029727167 0.026771285
0.020221958 0.010916047 0.009635311 0.02268193 -0.036095053 0.010931292 -0.015104955 -0.004193209
-0.009906155 -0.019841408 -0.0048316396 0.03808718 0.00037859508 0.017582003 0.02684382 -0.027096152
0.01794014 0.026577478 0.0019165303 -0.020329768 0.025975874 -0.01273398 -0.0139581105 0.009464584
-0.016396802 -0.02198526 -0.032813825 -0.008486036 0.03157502 -0.0060828524 0.03489643 0.029756848
-0.00042134756 -0.01648419 -0.014567309 -0.03750105 -0.0043671546 0.0028914812 -0.031632833 -0.022139056
0.012314374 -0.03468291 -0.006663783 -0.007828761 -0.023790345 -0.00052556366 -0.016803054 -0.005522628
0.0025424815 -0.025393054 -0.016342826 -0.032415334 -0.029589985 0.013511939 -0.00038355484 -0.015720053
-0.0040631406 -0.02980821 -0.016195836 0.03852204 0.028824916 -0.0076305657 0.02171854 0.0014378398
0.035464145 0.00054273923 0.028654981 0.031119496 0.0028249288 0.03038761 0.032399375 0.014008748
-0.014178715 0.026345547 -0.010151241 -0.036264863 0.015748346 -0.014998878 -0.02536932 0.01895439
-0.022673976 -0.003873225 0.032959953 0.029331261 0.028309025 0.023404552 -0.011219598 -0.026438108
-0.013722749 0.03076129 -0.024354866 -0.022349989 0.0073472317 -0.023173226 0.01783798 0.0042359615
0.026138874 -0.023048751 -0.018692832 0.03558886 0.018256465 -0.0032145022 -0.016635332 -0.020604007
0.026781278 -0.017433327 0.031459536 -0.0016930982 0.02072015 0.03730392 0.016533911 0.031964727
0.017149936 0.026532069 -0.023229793 -0.018567337 0.0075779506 0.0061966884 0.011331275 -0.015185886
0.010661699 0.018265488 0.018744526 0.01587729 0.007406248 0.0012450039 0.035656046 0.022358945
-0.023857057 0.0213 0.012336754 0.021046605 -0.028021922 -0.03314391 0.008855864 0.024277106
-0.03385543 0.008237668 0.034561433 -0.016541656 0.00900604 -0.016505972 -0.0060073743 0.020836895
0.020902319 0.009160683 0.038551696 0.0022937525 0.011873145 0.035212062 -0.014165259 -0.022938311
-0.029288964 -0.0025370303 -0.010930142 -0.015673282 0.0004175836 0.006729557 0.029349068 -0.030720914
00000000: 325a f13b 4fdb bbbb 43f8 b9bc 04a3 28bb
00000010: 5762 093d 7f74 7f3b 49d8 013d c2e5 c93b
00000020: 1d75 b8bc efb1 0b3c 0d79 943c 4224 8fbc
00000030: ad17 8a3c 01e3 ea3c c1a6 05bd 0adb 973c
00000040: 3888 efbb 90a1 14bd ddae 313c c693 0b3d
00000050: 19f7 02bb 4e1f d7bc 6eac 0f3d db3f adbc
00000060: 5b2e 073d cc5c 1c3c 6e82 20bd 0f74 dd3b
00000070: 27bb 963c d246 abbc 6050 45bc b404 13bc
00000080: e24d 87bc b42e c63c 343b 083d 8914 5fbc
00000090: 8c3c e03c 0534 843c db26 3ebc 7c04 113d
000000a0: 9c6a f93c af13 b43c 0082 e73c 3a61 973b
000000b0: 75d3 57bc 9889 0e3d 61f7 ecbc afe0 50bc
000000c0: aa54 96bc 8ba5 b13c 768d 8e3c e4bb 01bd
000000d0: 8d61 553c 6084 57bc 5dee b03c 7332 ba3c
000000e0: 471a 0ebd 6e10 eebc 997b 10bd a867 a43c
000000f0: 8474 01bd ef10 c1ba 6a3c 433b 394c c23c
00000100: 44a7 99bc 7f36 b03c 565e e03c f0fb aebc
00000110: 50f2 41bc 5ff5 74bc 2e49 343a ec29 09bc
00000120: bd24 8abb 5f47 a1bc fff3 183d 63ef 76bc
00000130: 7ed1 c93b 5377 01bd ce62 17bb bcbc f3bc
00000140: 96d2 94bc 1b88 0b3d d06e 8b3c 0951 0e3b
00000150: 87b7 753c 4897 9abb 351a de3b c188 d13c
00000160: e127 0c3d 0806 943c e9a5 523a d5f0 ba3c
00000170: a113 80bc 2159 e13b 6386 f3bc 744f db3c
00000180: 85a8 a53c 38d9 323c 6cdd 1d3c 74cf b93c
00000190: 68d8 13bd 2919 333c c67a 77bc 3067 89bb
000001a0: 6d4d 22bc 738a a2bc bb52 9ebb 4e01 1c3d
000001b0: 2c7e c639 2208 903c 92e7 db3c c0f8 ddbc
000001c0: 33f7 923c 03b9 d93c 1634 fb3a 9d8a a6bc
000001d0: 5bcb d43c 2fa2 50bc 8fb0 64bc 5811 1b3c
000001e0: 9652 86bc 6f1a b4bc ca67 06bd 0409 0bbc
000001f0: cf54 013d aa52 c7bb 8fef 0e3d a2c4 f33c
00000200: 50e8 dcb9 da09 87bc b9ab 6ebc b39a 19bd
00000210: 591a 8fbb 017f 3d3b 6e91 01bd f75c b5bc
00000220: 3ac2 493c ab0f 0ebd dd5b dabb 3444 00bc
00000230: f8e3 c2bc fbc5 09ba 8fa6 89bc 29f7 b4bb
00000240: c39f 263b 1805 d0bc 64e1 85bc f1c5 04bd
00000250: b266 f2bc 2e61 5d3c dc17 c9b9 57c7 80bc
00000260: 1824 85bb 5930 f4bc 21ad 84bc 49c9 1d3d
00000270: 3b22 ec3c d309 fabb 14eb b13c e675 bc3a
00000280: da42 113d 9d46 0e3a dabd ea3c 50ee fe3c
00000290: 7122 393b 70ef f83c 35b5 043d f384 653c
000002a0: d74d 68bc 9ed2 d73c 6451 26bc 778a 14bd
000002b0: ad02 813c dbbd 75bc 52d3 cfbc 3d46 9b3c
000002c0: c6be b9bc efd5 7dbb 0401 073d 1d48 f03c
000002d0: 54e8 e73c e7ba bf3c 68d2 37bc bb94 d8bc
000002e0: 62d5 60bc 1aff fb3c db83 c7bc 5317 b7bc
000002f0: 0cc1 f03b c7d5 bdbc f520 923c d2cd 8a3b
00000300: 3121 d63c bcd0 bcbc b621 99bc a0c5 113d
00000310: 958e 953c 66aa 52bb d246 88bc bcc9 a8bc
00000320: 6964 db3c 56d0 8ebc b7db 003d f3ea ddba
00000330: 4ebd a93c ffcb 183d 2072 873c 72ed 023d
00000340: 067e 8c3c c859 d93c 684c bebc 871a 98bc
00000350: 7550 f83b 970d cb3b d0a6 393c 39ce 78bc
00000360: 68ae 2e3c 81a1 953c 1f8e 993c 1711 823c
00000370: 1cb0 f23b 662f a33a 130c 123d 1b2a b73c
00000380: e06f c3bc 567d ae3c 1920 4a3c ee69 ac3c
00000390: 3b8e e5bc e9c1 07bd 3018 113c c8e0 c63c
000003a0: feab 0abd 49f7 063c 4a90 0d3d 5e82 87bc
000003b0: 128e 133c 8837 87bc 82d9 c4bb 23b2 aa3c
000003c0: 573b ab3c b016 163c 62e8 1d3d c852 163b
000003d0: 9487 423c 863a 103d 6715 68bc 20e9 bbbc
000003e0: 69ef efbc 4e44 26bb 5714 33bc 4165 80bc
000003f0: 1fef da39 9e83 dc3b 756d f03c 6daa fbbc

fc1.bias f4 [256]
-0.020404339 -0.0072571263 -0.003991221 -0.019858995 0.032519225 -0.021051873 -0.035895668 0.032478236
-0.03066099 -0.016063144 0.025141217 0.029333558 -0.027072372 0.02273682 -0.01063139 -0.0053969324
0.018567681 -0.031926107 0.027608072 0.033672743 -0.026085561 0.005252493 -0.012510148 0.023011483
0.0129192155 -0.017121384 0.033860926 0.0057168617 0.009959768 -0.016072024 -0.015338664 0.0272957
-0.032440696 -0.030570345 -0.0015302324 0.030360654 0.018473068 0.025152782 0.026266841 0.01899611
0.007081836 -0.011656285 -0.012777846 -0.01862199 0.005878299 0.019559694 -0.008457117 0.015544447
-0.03462888 0.01652354 0.0028672365 0.0011115416 -0.029340748 -0.015878562 0.027372548 -0.015956443
0.0014577538 0.024319096 0.033218257 0.009421806 -0.0036475344 0.030644314 0.02959347 0.015584298
-0.02832104 -0.015785528 -0.022801414 0.012976936 -0.019349657 -0.030087043 -0.010658745 -0.014491852
0.035045855 -0.0054710996 -0.032087166 0.000583182 -0.012262538 -0.027610697 -0.026608052 -0.008113863
-0.0022985376 -0.010357152 0.017304778 0.017450495 -0.020851234 -0.006324011 -0.034156594 0.027597964
0.027046133 0.035374593 -0.03483692 0.018844843 -0.03397049 -0.016315859 0.013496755 0.0071077365
0.015959317 0.03602671 -0.026474852 0.0011984567 -0.00032020302 0.0355911 0.015949093 -0.009332927
-0.014339353 0.013768971 -0.0054868036 0.024941973 0.022273298 -0.033806324 -0.02301856 0.03008922
-0.0009392673 -0.025036981 -0.029306462 -0.020047275 0.019150423 -0.015458385 0.026414363 0.002140976
-0.00058054493 -0.031698488 0.030645657 0.0028931 0.025152577 0.00088922057 0.0061486512 0.024051152
0.017982908 0.017686209 -0.035614286 0.011399218 -0.011722768 0.003129596 0.004494657 -0.023137564
0.016305152 -0.029347781 -0.026350096 0.009535846 -0.028744962 -0.034169964 -0.009266037 0.019122455
0.02512693 -0.01952641 0.022553513 0.001797842 0.01784512 -0.031752586 -0.026570268 -0.013884368
0.011541753 -0.03318354 0.01442747 -0.0051478334 0.029445948 -0.021413201 0.020359466 -0.015702657
-0.029244302 0.012843283 -0.032036636 0.026167719 -0.007964164 0.015708685 -0.016954193 0.008086587
0.001394117 0.005214505 0.030862834 -0.011004165 0.010033344 -0.031110456 -0.034722555 -0.021553412
0.022703294 0.019571895 0.015148729 -0.011914048 -0.019063735 0.015453609 -0.0128038535 0.027775476
0.019801218 -0.029389739 -0.009215856 0.03128467 0.035644133 0.019488698 -0.010421912 -0.012151192
-0.0052986317 0.020677552 -0.0261364 0.0017414406 0.014890578 -0.008994066 -0.014091438 -0.034385692
-0.0027172645 -0.031527985 0.008842535 0.012992256 -0.02653801 -0.007108973 0.03162229 0.0351912
-0.01892203 -0.0066667316 -0.02651174 -0.020532152 0.01856194 0.020793024 0.013134482 -0.025931424
0.033776864 0.025187956 0.029615255 -0.0032341317 0.014749518 0.0013670261 -0.028251128 0.0041462793
0.016078617 0.014658469 0.0008450889 -0.034677193 -0.02372588 0.0031890867 0.023534345 0.011736723
-0.032087468 0.020128343 0.0029690526 0.0027739762 -0.019804936 -0.0036726403 -0.0053256815 0.017754806
0.03447367 0.010200784 0.024275677 -0.0070593543 0.0070568714 -0.02600126 0.018757086 -0.015013184
-0.018833678 -0.0051217685 0.012738674 -0.023696128 -0.0023376558 0.0106775025 0.013926664 -0.006466255
00000000: 0027 a7bc 30cd edbb cac8 82bb 55af a2bc
00000010: e132 053d fa74 acbc 5607 13bd e607 053d
00000020: c22c fbbc db96 83bc f4f4 cd3c ee4c f03c
00000030: e1c6 ddbc 9142 ba3c 482f 2ebc c0d8 b0bb
00000040: 401b 983c f3c4 02bd 532a e23c 6eec 093d
00000050: 63b1 d5bc 1b1d ac3b 5df7 4cbc 9482 bc3c
00000060: 1eab 533c 2542 8cbc c1b1 0a3d 8354 bb3b
00000070: 4b2e 233c 7aa9 83bc 054f 7bbc 3b9b df3c
00000080: 89e0 04bd a96e fabc 1492 c8ba e8b6 f83c
00000090: d554 973c 350d ce3c 8f2d d73c bb9d 9b3c
000000a0: bf0e e83b 01fa 3ebc 2c5a 51bc 258d 98bc
000000b0: bf9e c03b a73b a03c b88f 0abc 23ae 7e3c
000000c0: 03d7 0dbd 605c 873c 3fe8 3b3b 26b1 913a
000000d0: 025c f0bc c213 82bc 653c e03c 16b7 82bc
000000e0: 1a12 bf3a d738 c73c de0f 083d eb5d 1a3c
000000f0: 790b 6fbb c909 fb3c 016e f23c 4955 7f3c
00000100: 8701 e8bc a750 81bc 08ca babc 379d 543c
00000110: 2c83 9ebc 1a79 f6bc 04a2 2ebc 3c6f 6dbc
00000120: 3e8c 0f3d e946 b3bb d56d 03bd aee0 183a
00000130: d0e8 48bc d42f e2bc 21f9 d9bc 02f0 04bc
00000140: 10a3 16bb 0bb1 29bc c0c2 8d3c 57f4 8e3c
00000150: 35d0 aabc a639 cfbb c9e7 0bbd 2015 e23c
00000160: da8f dd3c f3e4 103d 29b1 0ebd 8060 9a3c
00000170: a424 0bbd d6a8 85bc 7e21 5d3c 04e8 e83b
00000180: 1dbd 823c be90 133d cae1 d8bc 8915 9d3a
00000190: ece0 a7b9 f9c7 113d aca7 823c 22e9 18bc
000001a0: 9bef 6abc 4097 613c a5ca b3bb 1c53 cc3c
000001b0: 7e76 b63c 8078 0abd 6b91 bcbc ab7d f63c
000001c0: 2939 76ba 5b1a cdbc 1b14 f0bc 2f3a a4bc
000001d0: 59e1 9c3c 2b45 7dbc ef62 d83c 9e4f 0c3b
000001e0: b62f 18ba 46d6 01bd 9a0c fb3c 2a9a 3d3b
000001f0: c70c ce3c 951a 693a a07a c93b ec06 c53c
00000200: e450 933c abe2 903c 49e0 11bd c9c3 3a3c
00000210: da10 40bc e819 4d3b ea47 933b fd8a bdbc
00000220: 6292 853c c26a f0bc 28dc d7bc 3d3c 1c3c
00000230: 8e7a ebbc cef5 0bbd 93d0 17bc b2a6 9c3c
00000240: fed6 cd3c daf5 9fbc 25c2 b83c 91a5 eb3a
00000250: ee2f 923c 000f 02bd e4a9 d9bc 437b 63bc
00000260: 9f19 3d3c 77eb 07bd 3261 6c3c 28af a8bb
00000270: a138 f13c bd6a afbc e5c8 a63c dca2 80bc
00000280: bf91 efbc a26c 523c d938 03bd af5d d63c
00000290: 207c 02bc 80af 803c 85e3 8abc 9b7d 043c
000002a0: ceba b63a 70de aa3b 0ed4 fc3c d04a 34bc
000002b0: e562 243c 5bdb febc 3d39 0ebd c890 b0bc
000002c0: 42fc b93c 3d55 a03c 6032 783c 2433 43bc
000002d0: 8d2b 9cbc 2231 7d3c 41c7 51bc 6589 e33c
000002e0: 2a36 a23c c0c2 f0bc 1afe 16bc 5b24 003d
000002f0: 95ff 113d c3a6 9f3c abc0 2abc cb15 47bc
00000300: 25a0 adbb f863 a93c 011c d6bc 0d41 e43a
00000310: 9cf7 733c d95b 13bc c6df 66bc 03d8 0cbd
00000320: 2214 32bb 7d23 01bd 48e0 103c 79dd 543c
00000330: 3e66 d9bc 63f2 e8bb 6086 013d a624 103d
00000340: 6002 9bbc 9974 dabb 262f d9bc 0b33 a8bc
00000350: 360f 983c 2256 aa3c 0332 573c 236e d4bc
00000360: 9c59 0a3d f956 ce3c b19b f23c baf3 53bb
00000370: f6a7 713c c92d b33a e96e e7bc 83dd 873b
00000380: 4eb7 833c 132a 703c f588 5d3a ac09 0ebd
00000390: c75c c2bc ffff 503b 19cb c03c 624b 403c
000003a0: 266e 03bd 32e4 a43c 7094 423b 99cb 353b
000003b0: f63d a2bc aeb0 70bb 0e83 aebb 8772 913c
000003c0: 4334 0d3d 3021 273c c9dd c63c 2852 e7bb
000003d0: 543d e73b 9800 d5bc 76a8 993c dcf9 75bc
000003e0: 1649 9abc 82d4 a7bb dfb5 503c 621e c2bc
000003f0: 5b33 19bb b1f0 2e3c aa2c 643c e1e2 d3bb

bn1.weight f4 [256]
1.0001498 1.0040526 1.0021404 1.0009264 1.0004677 1.0005316 1.002927 0.99814534
0.99877137 0.9981899 1.0027313 1.0009536 0.99961656 1.004921 1.0016332 0.99561596
0.99978507 0.99869025 1.0030032 1.0004143 1.000193 0.99834955 1.0013556 0.99878263
0.9999108 0.99786466 0.99780524 0.9986189 1.0019736 1.0007608 0.99750435 0.9999332
1.0038995 0.99741423 0.9991144 0.99868965 1.001513 0.9992255 1.0029758 1.0019237
0.99960124 0.9980623 1.0011532 0.99864095 1.0021676 1.0021867 1.0014367 1.0004075
1.0013005 1.0001596 0.9998095 1.0016326 0.999069 0.997862 0.9985324 0.99925125
1.0015551 1.0007006 0.99770206 0.99921536 0.99845797 1.0014082 0.9991077 0.99982375
1.0002514 0.99735665 0.997254 1.0018195 0.9990329 0.99902195 1.0015988 0.99904084
1.0002648 1.0007782 0.99816227 0.9982335 0.9967152 0.99800116 0.9947772 0.9990241
1.0027609 1.0013324 1.0020481 1.0001802 0.997834 1.0003453 1.0007944 1.0028421
0.99914014 0.99901086 1.0007389 1.0048676 1.0021867 1.0003985 1.0017806 1.0012276
1.0017793 1.0031813 0.99849486 1.0035282 0.99908984 0.99817324 0.99883515 1.0023866
1.0017879 0.99749553 0.9999332 1.0025018 0.9983451 0.9985258 1.0010542 0.99995387
1.001343 0.9992923 0.9986457 0.9982339 0.997716 0.99787146 1.0015706 0.9981018
1.0012084 0.99877095 1.0023082 0.9984666 0.99826396 0.99812037 0.9983087 0.9985892
1.000436 1.0010695 0.99779224 0.99909467 0.9986052 1.0036175 0.99750614 0.99975115
0.9985555 0.9989723 1.0012573 1.0013534 0.99772495 1.0023092 0.9983513 0.99941623
1.0006655 1.0001583 1.002755 1.0001888 1.0012482 0.99815 0.9997418 1.0035143
1.0051544 1.0024625 0.9997123 0.99862695 0.9988604 1.0025722 0.9975543 1.0039816
0.9970453 0.99891466 0.9998263 1.0002041 0.9988131 1.0001315 1.0045854 0.9991139
1.0000433 0.9996 1.001832 1.0014005 1.0034337 0.99901783 1.002754 0.99896157
0.9999193 1.000693 0.9984989 0.99872774 0.9998272 0.99765676 1.0009278 1.0039752
0.99753445 0.9977096 1.0002482 1.001242 0.99998397 0.99741167 0.99957436 0.99732697
0.99767435 1.0015329 0.99999267 0.9981514 0.99956465 0.99901676 0.9988232 0.99743354
1.0019475 1.0017319 1.0004038 0.9987664 0.9984971 1.0020375 1.0000769 0.99729365
0.99832916 1.0041043 1.0020252 1.0007716 1.0018967 0.99749535 0.99988586 0.998967
1.000627 0.99890196 0.9990851 1.0005804 0.9980402 1.0011737 0.99785596 0.9963771
0.99988484 1.002392 1.00173 1.0025197 1.0011301 0.9994408 1.0003467 0.9974193
0.9973114 0.9989916 0.9973682 1.0015136 0.99783486 0.99934274 1.0010407 0.9974117
0.9976648 0.9977433 1.0013381 1.0020564 0.998481 0.9959461 1.0019857 1.0001578
0.99813545 0.99886143 1.0029548 1.0022478 1.0031067 1.0024401 0.9980418 1.001814
00000000: e904 803f cc84 803f 2346 803f 5b1e 803f
00000010: 530f 803f 6b11 803f e95f 803f 7486 7f3f
00000020: 7baf 7f3f 6089 7f3f 8059 803f 3f1f 803f
00000030: dfe6 7f3f 40a1 803f 8435 803f b0e0 7e3f
00000040: eaf1 7f3f 2aaa 7f3f 6962 803f 930d 803f
00000050: 5306 803f d693 7f3f 6c2c 803f 38b0 7f3f
00000060: 27fa 7f3f 0f74 7f3f 2a70 7f3f 7da5 7f3f
00000070: ac40 803f ee18 803f 725c 7f3f 9ffb 7f3f
00000080: c77f 803f 8a56 7f3f f6c5 7f3f 20aa 7f3f
00000090: 9431 803f 3ecd 7f3f 8361 803f 093f 803f
000000a0: dee5 7f3f 0381 7f3f ca25 803f efa6 7f3f
000000b0: 0747 803f a747 803f 142f 803f 5a0d 803f
000000c0: 9d2a 803f 3b05 803f 84f3 7f3f 7f35 803f
000000d0: fcc2 7f3f e273 7f3f d29f 7f3f eece 7f3f
000000e0: f532 803f f516 803f 6769 7f3f 94cc 7f3f
000000f0: f19a 7f3f 252e 803f 86c5 7f3f 73f4 7f3f
00000100: 3d08 803f c452 7f3f 0a4c 7f3f 9f3b 803f
00000110: 9fc0 7f3f e7bf 7f3f 6434 803f 24c1 7f3f
00000120: ad08 803f 8019 803f 9087 7f3f 3b8c 7f3f
00000130: ba28 7f3f 017d 7f3f b8a9 7e3f 0bc0 7f3f
00000140: 785a 803f a92b 803f 1d43 803f e805 803f
00000150: 0d72 7f3f 510b 803f 081a 803f 215d 803f
00000160: a6c7 7f3f 2dbf 7f3f 3618 803f 809f 803f
00000170: a747 803f 0f0d 803f 593a 803f 3a28 803f
00000180: 4e3a 803f 3f68 803f 5c9d 7f3f 9d73 803f
00000190: 5ac4 7f3f 4888 7f3f a9b3 7f3f 344e 803f
000001a0: 963a 803f de5b 7f3f 9ffb 7f3f fb51 803f
000001b0: 8b93 7f3f 639f 7f3f 8b22 803f fafc 7f3f
000001c0: 022c 803f 9fd1 7f3f 3fa7 7f3f 428c 7f3f
000001d0: 516a 7f3f 8174 7f3f 7733 803f 9983 7f3f
000001e0: 9927 803f 74af 7f3f a34b 803f 829b 7f3f
000001f0: 3a8e 7f3f d184 7f3f 2991 7f3f 8ba3 7f3f
00000200: 490e 803f 0c23 803f 506f 7f3f abc4 7f3f
00000210: 97a4 7f3f 8a76 803f 905c 7f3f b1ef 7f3f
00000220: 55a1 7f3f a6bc 7f3f 3329 803f 592c 803f
00000230: e76a 7f3f ab4b 803f f393 7f3f bed9 7f3f
00000240: cf15 803f 3005 803f 475a 803f 3006 803f
00000250: e728 803f c286 7f3f 14ef 7f3f 2873 803f
00000260: e6a8 803f b150 803f 25ed 7f3f 04a6 7f3f
00000270: 51b5 7f3f 4954 803f b85f 7f3f 7882 803f
00000280: 5c3e 7f3f dfb8 7f3f 9ef4 7f3f b006 803f
00000290: 37b2 7f3f 4f04 803f 4196 803f eec5 7f3f
000002a0: 6b01 803f c9e5 7f3f 083c 803f e42d 803f
000002b0: 8470 803f a2bf 7f3f 3e5a 803f f2bb 7f3f
000002c0: b6fa 7f3f b516 803f a09d 7f3f 9fac 7f3f
000002d0: adf4 7f3f 6f66 7f3f 671e 803f 4282 803f
000002e0: 6b5e 7f3f e569 7f3f 2208 803f b328 803f
000002f0: f3fe 7f3f 5f56 7f3f 1be4 7f3f d250 7f3f
00000300: 9667 7f3f 3b32 803f 85ff 7f3f da86 7f3f
00000310: 78e3 7f3f 90bf 7f3f e1b2 7f3f ce57 7f3f
00000320: d13f 803f c038 803f 3b0d 803f 28af 7f3f
00000330: 829d 7f3f c442 803f 8502 803f a34e 7f3f
00000340: 8092 7f3f 7d86 803f 5d42 803f 4919 803f
00000350: 273e 803f db5b 7f3f 85f8 7f3f 4dbc 7f3f
00000360: 8c14 803f 0ab8 7f3f 0bc4 7f3f 0513 803f
00000370: 907f 7f3f 7626 803f 7d73 7f3f 9212 7f3f
00000380: 74f8 7f3f 624e 803f b038 803f 9152 803f
00000390: 0825 803f 5adb 7f3f 5c0b 803f df56 7f3f
000003a0: cd4f 7f3f eabd 7f3f 8653 7f3f 9931 803f
000003b0: 1b72 7f3f edd4 7f3f 1a22 803f 6056 7f3f
000003c0: f666 7f3f 1b6c 7f3f d92b 803f 6243 803f
000003d0: 739c 7f3f 53f6 7e3f 1141 803f 2c05 803f
000003e0: ce85 7f3f 62b5 7f3f d360 803f a849 803f
000003f0: cd65 803f f54f 803f ab7f 7f3f 713b 803f

bn1.bias f4 [256]
0.0010989426 0.0025333355 0.0034162991 -0.0003236373 0.0013357708 0.0013960827 0.0042909044 -0.00045452284
0.0006591015 -0.0005286922 0.0020095464 -0.0041615623 0.00023848812 0.00444452 0.0012696254 -0.0014462194
0.0005565231 -0.0014412468 0.004726856 -0.00029607653 0.00094020367 -0.0024405199 0.0018418273 0.0006837055
0.00080523855 -0.0021499104 -0.00015550641 -0.0013117522 0.00052083534 0.0012574022 -0.0037133938 -0.0014990749
0.00317637 -0.001942144 -0.0002403994 -0.0010769271 0.00095267623 0.0016868048 0.004231046 0.0012385118
0.00021773796 -0.0029678354 0.0005875178 -0.0010152444 0.0021584271 0.0024116526 0.0014399491 -0.0017376384
0.0009117506 -0.00017785202 -0.0018342385 0.005167614 -0.0015290484 -0.0035421366 -0.001411819 -0.0015700172
0.0022609057 0.0026767473 -0.0011050261 0.001183627 0.00086082786 0.0032420962 -0.0014556705 5.7344685e-05
0.00067272043 -0.0011731935 -0.0030885274 0.005134479 -0.00036979647 -0.000423652 0.0013854511 0.00057347055
0.0009563689 0.00044518648 -0.0018437838 -0.0010465058 -0.001765018 -0.0012292915 -0.0032039862 -0.0010909399
0.0028412384 0.0026284105 -0.00031369712 0.0006960875 -0.0030536628 0.0014523081 0.0015558476 0.0010345201
0.0003467743 -0.00019895314 0.0019365319 0.002542595 0.003211882 0.0018332783 0.0014359831 0.0014081377
0.00021530913 0.0024057168 -0.00084935734 -0.0002894969 -0.0012408324 0.0005949505 -0.0005816728 0.0029824227
0.0022403714 -0.0023805278 -0.0004402206 0.00368916 -0.0023585057 -0.0021034488 0.00011534508 1.893804e-05
0.0006485953 -0.0003114813 -0.0005867672 -0.0011559094 -0.0018798593 -0.0016647818 0.001612863 -0.0012023837
7.2401606e-05 -0.0005669641 0.0022435668 0.000696828 -0.0013288481 -0.00044708824 -0.0025492643 -0.0015365051
0.00027375764 0.0024004197 -0.0014489677 -0.00069932116 0.001624289 0.0029693854 -0.0026929812 6.247628e-05
-0.00017165884 -0.0011449389 0.0015394285 0.00032300391 0.0005492614 0.0027033156 -0.00063585327 -0.00044531064
-0.0017353077 0.0018251274 0.002038295 0.00230278 0.0016038993 0.0007803695 -0.0009705205 0.002352299
0.0029921175 -0.001281437 -0.00034704062 -0.0015043211 -0.0021584656 0.0024094367 -0.0007723805 0.0037444176
-0.002643793 -0.0023638194 0.0015460013 -0.0010622287 -0.00033486166 -0.0009496376 0.002197178 -0.00084649515
-0.0006370157 0.0014884592 0.0014986222 -0.00080614316 0.0018086034 -0.0019759482 -0.0005672469 -0.0011315829
-0.0009798431 0.002444724 -7.295784e-05 0.000849302 0.0004360209 0.00060297525 0.0012191022 0.0029730075
-0.003759415 -0.0017670493 0.00040423605 0.0015570226 -0.0014594344 0.0016780094 -0.00046186484 8.867089e-05
-0.0036359322 0.0015487827 0.002403713 -0.0014528928 -0.00045454368 -0.0012534069 -0.0014047279 -0.0016027907
0.0014155962 0.0027918278 -0.00066071487 -0.00041760475 -0.0017080716 0.0018356842 0.0011103676 -0.001237944
-0.0004375139 0.0033170173 0.0020992453 0.0015356543 0.0011388592 -0.0019844007 0.00020862311 -0.0013756658
0.0007748348 -0.000676652 -0.0008756803 0.0012480611 -0.002858875 0.003899522 -0.000754162 -0.0024115387
0.00013065145 -2.5482863e-05 -4.9637827e-05 0.002571458 0.0008400554 -0.0003511081 3.706358e-05 -0.0021864285
-0.00013635975 -0.0011691514 0.00035681913 0.002676585 -0.0009839735 0.0014973879 0.0009170493 -0.001594541
-1.1956146e-05 -0.0018001645 9.1340415e-05 -0.00081846287 -0.00034597697 -0.0020533202 0.0028965042 0.00093254447
-0.0012715607 -0.0011488601 0.0024844173 0.0021564758 0.0011748231 0.0024729357 -0.0023113862 0.0013570761
00000000: 650a 903a 5106 263b fde3 5f3b ddad a9b9
00000010: 0815 af3a c3fc b63a b79a 8c3b 064d eeb9
00000020: 8ec7 2c3a ef97 0aba 98b2 033b b75d 88bb
00000030: ab12 7a39 56a3 913b 8f69 a63a 128f bdba
00000040: a2e3 113a 38e8 bcba bee3 9a3b b83a 9bb9
00000050: 0078 763a 21f1 1fbb 7869 f13a b33a 333a
00000060: a516 533a 83e5 0cbb 6f0f 23b9 1aef abba
00000070: ab88 083a 6bcf a43a 695c 73bb 9b7c c4ba
00000080: a52a 503b 8a8f feba b913 7cb9 ad27 8dba
00000090: 05bd 793a c717 dd3a 96a4 8a3b 8f55 a23a
000000a0: 9750 6439 0480 42bb a703 1a3a f311 85ba
000000b0: 6674 0d3b d10c 1e3b adbc bc3a 78c1 e3ba
000000c0: 8c02 6f3a ca7d 3ab9 d56a f0ba 1755 a93b
000000d0: 5a6a c8ba 3123 68bb c90c b9ba 09c9 cdba
000000e0: b42b 143b 5e6c 2f3b 86d6 90ba ef23 9b3a
000000f0: 2ea9 613a 5979 543b 32cc beba 6385 7038
00000100: 8159 303a d7c5 99ba e468 4abb 223f a83b
00000110: 3ee1 c1b9 9c1d deb9 0698 b53a f554 163a
00000120: d5b4 7a3a eb67 e939 1eab f1ba e82a 89ba
00000130: 2d58 e7ba 2e20 a1ba f8f9 51bb defd 8eba
00000140: 1234 3a3b 6941 2c3b b777 a4b9 a479 363a
00000150: f61f 48bb 605b be3a 95ed cb3a bc98 873a
00000160: 42cf b539 149e 50b9 3ad3 fd3a aaa1 263b
00000170: 707e 523b 9d4a f03a 9937 bc3a 4391 b83a
00000180: 9bc4 6139 3ba9 1d3b 68a7 5eba 9ec7 97b9
00000190: 6da3 a2ba 74f6 1b3a 677b 18ba c074 433b
000001a0: 32d3 123b a102 1cbb 69cd e6b9 d6c5 713b
000001b0: 2991 1abb 04da 09bb 6be5 f138 22dd 9e37
000001c0: 7e06 2a3a 504e a3b9 48d1 19ba e281 97ba
000001d0: 9c65 f6ba cf34 daba b466 d33a 4d99 9dba
000001e0: 51d6 9738 51a0 14ba ce08 133b 56ab 363a
000001f0: be2c aeba 2b67 eab9 8f11 27bb 8e64 c9ba
00000200: 2187 8f39 5c50 1d3b 4aeb bdba a652 37ba
00000210: 18e6 d43a 059a 423b ba7c 30bb b305 8338
00000220: 52ff 33b9 c611 96ba a6c6 c93a da58 a939
00000230: 4ffc 0f3a 1c2a 313b 64af 26ba 9578 e9b9
00000240: 4473 e3ba 1d39 ef3a ea94 053b 3dea 163b
00000250: ee39 d23a b691 4c3a 876a 7eba 0729 1a3b
00000260: 6717 443b e4f5 a7ba 01f3 b5b9 a42c c5ba
00000270: 0b75 0dbb a4e7 1d3b 9479 4aba e764 753b
00000280: 7c43 2dbb 4fea 1abb 32a3 ca3a 7b3a 8bba
00000290: 5f90 afb9 1af1 78ba 88fe 0f3b 54e7 5dba
000002a0: 66fd 26ba 6718 c33a 6b6d c43a 5a53 53ba
000002b0: a90e ed3a e97e 01bb 4cb3 14ba 9f51 94ba
000002c0: 146e 80ba aa37 203b f100 99b8 b1a3 5e3a
000002d0: bc99 e439 fc10 1e3a 48ca 9f3a cad6 423b
000002e0: 8460 76bb 569c e7ba a5ef d339 0215 cc3a
000002f0: 7e4a bfba a7f0 db3a 7326 f2b9 d2f4 b938
00000300: d248 6ebb 8600 cb3a 9d87 1d3b fe6e beba
00000310: d24f eeb9 5b49 a4ba d91e b8ba bb14 d2ba
00000320: 878b b93a 19f7 363b d333 2dba f6f1 dab9
00000330: 5fe1 dfba 579b f03a c189 913a 8242 a2ba
00000340: 1f62 e5b9 5162 593b 7e93 093b 0248 c93a
00000350: c645 953a b80c 02bb d7c1 5a39 af4f b4ba
00000360: 491e 4b3a 5961 31ba e98d 65ba fb95 a33a
00000370: f75b 3bbb 1f8f 7f3b f5b2 45ba e80a 1ebb
00000380: 7bff 0839 08c4 d5b7 3632 50b8 e885 283b
00000390: 2a37 5c3a ee14 b8b9 b774 1b38 2f4a 0fbb
000003a0: cbfb 0eb9 363e 99ba 7413 bb39 a569 2f3b
000003b0: acf8 80ba 0044 c43a 2366 703a ebff d0ba
000003c0: 4297 48b7 7ff3 ebba 038e bf38 1d8e 56ba
000003d0: 3e64 b5b9 ff90 06bb 47d3 3d3b 0076 743a
000003e0: 7faa a6ba 5995 96ba 9bd1 223b a953 0d3b
000003f0: 86fc 993a fa10 223b a07a 17bb ebdf b13a

bn1.running_mean f4 [256]
0.41443565 -0.26567462 -0.018113842 -0.48481348 -0.2915898 -0.6227039 0.09930417 -0.41421297
0.07731232 -0.24136236 0.3173425 0.12547074 -0.118663006 -0.65148664 -0.7299939 -0.29357338
-0.12895574 0.110843614 -0.003342662 -0.16131453 -0.19021922 0.37913817 -0.050619897 -0.15821892
-0.023650028 -0.23401576 0.56750995 -0.16898283 0.38139647 0.35718325 -0.43158138 0.07830284
-0.26065123 -0.1754029 0.11326212 0.22406924 0.33956382 0.6562693 -0.03531103 0.069007635
-0.0053957314 0.1755324 -0.44713002 -0.25486103 -0.32079867 0.17099583 -0.35295835 0.11612308
-0.5101346 0.1953396 -0.11759533 0.40282828 -0.17386729 0.5464367 -0.066888444 -0.38527274
-0.306536 -0.28551167 0.4061462 -0.082522854 0.16162345 -0.06943498 0.49015164 0.031275522
0.02415123 -0.13220444 0.18776597 0.0347482 0.3860369 0.5548929 0.05679164 -0.44860289
-0.33186817 -0.3300764 -0.23132306 0.16541575 0.14950478 -0.1382626 0.17445216 -0.027892228
0.1781211 -0.3697305 0.10761668 -0.28144088 -0.20854668 0.30536807 -0.1289469 0.5570262
-0.05047733 0.3713643 0.034238774 -0.41068497 -0.20972338 -0.65465736 -0.20983626 0.18229578
-0.3748348 0.056831982 0.018421797 -0.56479037 0.16312134 -0.4936285 -0.2111726 -0.2819492
0.029864104 0.03581865 -0.69914263 0.14815977 0.22835217 0.10890671 -0.9046729 -0.48199952
0.6676704 0.22527891 -0.24910402 0.6130424 -0.33158952 0.17156778 -0.04981425 0.93376213
-0.31238794 0.44397292 0.42864677 -0.013347532 -0.20550941 0.41227555 0.1333392 0.107703984
-0.052011468 0.5876538 -0.09151741 -0.1762219 0.14566123 -0.018466722 0.678481 0.20723934
0.2346039 -0.33004737 -0.3735464 -0.33197683 -0.12642708 -0.76240534 0.24029343 0.09715805
-0.2506702 -0.12358737 -0.2539251 0.31236926 0.074398145 0.26840654 -0.41856828 -0.7710822
-0.29485545 -0.23472062 -0.67209154 0.21948145 0.5751337 -0.195395 -0.15442754 -0.24056889
0.3478759 0.06836582 0.13776079 -0.44841722 -0.11418922 0.06958482 -0.75888383 0.35026956
-0.16047706 -0.28289792 -0.11637255 -0.13109094 0.23366606 0.3617546 -0.38813886 -0.44391188
-0.040956654 0.098765455 0.17972031 0.027686492 -0.11016487 -0.22995126 -0.18028723 0.34137055
-0.07556272 -0.29348606 -0.39073744 -0.17798825 -0.4543175 0.7342066 0.70257366 -0.08972906
0.14790696 -0.09246786 -0.5501869 0.32279557 -0.0009829907 -0.2287853 0.09799119 -0.449845
-0.15156834 0.06374567 -0.27889502 0.33032927 -0.22379428 -0.32992825 0.13075164 0.30472788
0.25528038 -0.74294925 -0.576698 0.10775779 -0.5501891 0.19536847 0.6749603 0.06494699
0.30545163 0.17379577 -0.08400113 0.115673915 -0.025391148 -0.008265743 0.051211566 0.14102907
0.2968052 -0.231911 -0.5280411 0.052284256 0.027819324 -0.77576 -0.08646719 -0.11184451
-0.503824 0.43761235 0.47555998 0.2634215 -0.4182366 0.15214387 -0.2475454 0.23804292
-0.12448873 0.19443597 0.29029214 -0.015240904 -0.30623648 -0.32270616 -0.85385466 -0.086486295
0.4809914 0.041636474 0.06450177 -0.66383606 -0.56444925 0.2741261 0.12781312 -0.57873344
00000000: e930 d43e 8106 88be 7b63 94bc 7939 f8be
00000010: 424b 95be 8669 1fbf fc5f cb3d b913 d4be
00000020: ec55 9e3d b227 77be b77a a23e 677b 003e
00000030: 9705 f3bd d4c7 26bf e1e0 3abf 404f 96be
00000040: f90c 04be fa01 e33d 9010 5bbb a32f 25be
00000050: d4c8 42be 661e c23e cf56 4fbd 2404 22be
00000060: b4bd c1bc d4a1 6fbe 5548 113f d609 2dbe
00000070: 6646 c33e b9e0 b63e 3cf8 dcbe 3d5d a03d
00000080: 1474 85be d19c 33be f8f5 e73d 6872 653e
00000090: 4fdb ad3e 4401 283f 4ca2 10bd e053 8d3d
000000a0: adce b0bb c4be 333e 3aee e4be 257d 82be
000000b0: b93f a4be 8819 2f3e f5b6 b4be f0d1 ed3d
000000c0: 2e98 02bf 1b07 483e d2d5 f0bd 823f ce3e
000000d0: 440a 32be 47e3 0b3f cffc 88bd 7842 c5be
000000e0: 49f2 9cbe 962e 92be 65f2 cf3e be01 a9bd
000000f0: 9e80 253e ed33 8ebd 28f5 fa3e c31a 003d
00000100: cdd8 c53c 9a60 07be b945 403e 2154 0e3d
00000110: a1a6 c53e 760d 0e3f 5a9e 683d 47af e5be
00000120: a0ea a9be c6ff a8be f4df 6cbe bf62 293e
00000130: c817 193e b694 0dbe 96a3 323e 3e7e e4bc
00000140: 6165 363e 514d bdbe 2266 dc3d 0519 90be
00000150: 438d 55be 3459 9c3e a80a 04be 4599 0e3f
00000160: 51c1 4ebd 7623 be3e f53d 0c3d 4d45 d2be
00000170: bac1 56be a097 27bf 51df 56be bfab 3a3e
00000180: 59ea bfbe a7c8 683d 4fe9 963c 1a96 10bf
00000190: 4809 273e e0bc fcbe a13d 58be a55b 90be
000001a0: 91a5 f43c 94b6 123d 03fb 32bf 32b7 173e
000001b0: 27d5 693e 7b0a df3d a598 67bf a4c8 f6be
000001c0: 73ec 2a3f 84af 663e 2015 7fbe 59f0 1c3f
000001d0: 1ac6 a9be 77af 2f3e 070a 4cbd 090b 6f3f
000001e0: 50f1 9fbe 6b50 e33e 9777 db3e 9baf 5abc
000001f0: 0f71 52be c815 d33e 128a 083e e893 dc3d
00000200: fa09 55bd 7b70 163f 7b6d bbbd 8473 34be
00000210: 3828 153e 8647 97bc eeb0 2d3f 8d36 543e
00000220: 013c 703e f8fb a8be 7941 bfbe def8 a9be
00000230: 1a76 01be ff2c 43bf 7b0f 763e cdfa c63d
00000240: d857 80be 601b fdbd 7902 82be ddee 9f3e
00000250: 0e5e 983d 956c 893e 954e d6be a565 45bf
00000260: 4bf7 96be 9a5a 70be 310e 2cbf bfbf 603e
00000270: f63b 133f a015 48be 4122 1ebe b157 76be
00000280: ca1c b23e 6103 8c3d 2a11 0d3e f196 e5be
00000290: 0adc e9bd 7c82 8e3d 3646 42bf 8856 b33e
000002a0: 1954 24be ffd7 90be bb54 eebd b43c 06be
000002b0: 2846 6f3e e637 b93e 23ba c6be 6b48 e3be
000002c0: 2ac2 27bd 8b45 ca3d 9a08 383e c8ce e23c
000002d0: 1f9e e1bd 5878 6bbe 379d 38be 1fc8 ae3e
000002e0: a1c0 9abd ce43 96be bd0e c8be 8d42 36be
000002f0: 4e9c e8be f7f4 3b3f dedb 333f dfc3 b7bd
00000300: ec74 173e ca5f bdbd 0cd9 0cbf 7645 a53e
00000310: b2d7 80ba b246 6abe 9baf c83d 1552 e6be
00000320: bb34 1bbe 178d 823d 54cb 8ebe eb20 a93e
00000330: 542a 65be 5bec a8be c2e3 053e 4b05 9c3e
00000340: 1cb4 823e ec31 3ebf 7ba2 13bf 1eb0 dc3d
00000350: 31d9 0cbf ac0e 483e 33ca 2c3f ed02 853d
00000360: 2864 9c3e 85f7 313e c908 acbd 72e6 ec3d
00000370: 1901 d0bc 0a6d 07bc 38c3 513d ed69 103e
00000380: daf6 973e 147a 6dbe b42d 07bf 0428 563d
00000390: 5ae5 e33c 3598 46bf b615 b1bd bc0e e5bd
000003a0: 9cfa 00bf ba0e e03e 997c f33e 2fdf 863e
000003b0: 1c23 d6be 9acb 1b3e 8b7c 7dbe 86c1 733e
000003c0: f3f3 febd 391a 473e 2ca1 943e fcb4 79bc
000003d0: 07cb 9cbe be39 a5be 3896 5abf ba1f b1bd
000003e0: 8144 f63e 028b 2a3d 8119 843d 29f1 29bf
000003f0: bf7f 10bf 425a 8c3e 71e1 023e e027 14bf

bn1.running_var f4 [256]
0.018962858 0.072600044 0.015247685 0.15445425 0.052105445 0.040267766 0.02753728 0.050140377
0.09735906 0.038205575 0.0123903705 0.011873943 0.04907033 0.08923649 0.044065975 0.060099386
0.07311926 0.018108238 0.01848013 0.025403844 0.16861247 0.11487077 0.18251888 0.06091172
0.040094033 0.035861105 0.015280913 0.15160146 0.02016836 0.017653067 0.060918972 0.016890876
0.16887324 0.034157168 0.016584951 0.03473319 0.016936645 0.06939854 0.18501025 0.07651984
0.04162507 0.061368413 0.09628946 0.03281076 0.028844737 0.08372648 0.22232942 0.018643452
0.09097623 0.026777424 0.10589569 0.042951055 0.021408342 0.017171323 0.19065349 0.021421893
0.03750878 0.08316175 0.041830983 0.033539955 0.072161235 0.085300595 0.018270278 0.21515575
0.02478373 0.08235317 0.051686082 0.02461876 0.058609016 0.026731458 0.20960504 0.17384884
0.102085754 0.06433099 0.041263983 0.080441914 0.10967614 0.08180647 0.04619772 0.071748644
0.09449199 0.13111375 0.014744579 0.05590916 0.0794992 0.05495768 0.056552812 0.016126974
0.13223155 0.03202643 0.03723002 0.010105343 0.18093783 0.04934346 0.08153311 0.16747616
0.16049205 0.019463504 0.12533364 0.042772338 0.034544744 0.073386855 0.044393152 0.055580243
0.27300587 0.09516917 0.01831829 0.04069487 0.13207476 0.10175742 0.14794648 0.048951898
0.015679495 0.048009407 0.17277226 0.2034034 0.044388246 0.060791064 0.10247872 0.2122865
0.061816595 0.014894554 0.104464956 0.061145615 0.07313826 0.015731148 0.015935522 0.049865715
0.072293125 0.09908651 0.050934423 0.07417751 0.045559555 0.13486022 0.026748873 0.08093451
0.046505682 0.08827317 0.045941718 0.04503186 0.17458382 0.24902183 0.14096719 0.103445165
0.032244552 0.020416697 0.04975049 0.08701545 0.119090095 0.036049575 0.10232291 0.032144014
0.090802856 0.01230631 0.05244812 0.12854002 0.025028883 0.13340844 0.033158544 0.10644133
0.03631066 0.009620192 0.14807487 0.114929415 0.1343101 0.07236194 0.051344715 0.060755067
0.16113494 0.10020514 0.111581 0.08078383 0.10157795 0.028598696 0.04828997 0.03150529
0.07303008 0.04539193 0.06591926 0.13734281 0.03522458 0.04178955 0.031448685 0.019025449
0.07999617 0.036185957 0.04801832 0.12330729 0.035212267 0.024362242 0.025027923 0.020128436
0.1256024 0.10330434 0.086184144 0.02897776 0.026862914 0.17004919 0.08783748 0.12614374
0.22424188 0.100293495 0.018093225 0.07948472 0.13937323 0.067626566 0.08444381 0.08281749
0.10517524 0.07264122 0.052716516 0.08123454 0.042588033 0.2540865 0.098430485 0.039313104
0.14445211 0.058007535 0.02771193 0.05571018 0.1270197 0.13755071 0.053683672 0.03166285
0.11499413 0.030375047 0.10026916 0.078091875 0.17144437 0.047934193 0.04716794 0.053025432
0.012080627 0.03722704 0.045585383 0.07871821 0.046755146 0.056304637 0.03829595 0.052218646
0.08673921 0.020172987 0.10643164 0.113939546 0.0448402 0.10298313 0.06625097 0.047291126
0.045270253 0.059109796 0.010520991 0.058488477 0.055718835 0.038023837 0.059004262 0.06845253
00000000: ff57 9b3c 55af 943d 6dd1 793c 4129 1e3e
00000010: 856c 553d d0ef 243d dd95 e13c ff5f 4d3d
00000020: 3064 c73d 737d 1c3d fb00 4b3c ed8a 423c
00000030: f8fd 483d 9fc1 b63d 867e 343d c62a 763d
00000040: 8dbf 953d ba57 943c a463 973c b91b d03c
00000050: bfa8 2c3e 5e41 eb3d 3be6 3a3e 917e 793d
00000060: a439 243d 18e3 123d cb5c 7a3c 6a3d 1b3e
00000070: 1e38 a53c 2a9d 903c 2c86 793d bc5e 8a3c
00000080: 1bed 2c3e 63e8 0b3d 2add 873c 6444 0e3d
00000090: b8be 8a3c d220 8e3d 5473 3d3e 6fb6 9c3d
000000a0: 0d7f 2a3d 725d 7b3d 6933 c53d 9364 063d
000000b0: cc4b ec3c ca78 ab3d 53aa 633e 27ba 983c
000000c0: bf51 ba3d 545c db3c d7df d83d 72ed 2f3d
000000d0: 8c60 af3c e0aa 8c3c ab3a 433e f77c af3c
000000e0: cea2 193d b550 aa3d f756 2b3d 3161 093d
000000f0: 45c9 933d 14b2 ae3d 8dab 953c ca51 5c3e
00000100: 4007 cb3c c7a8 a83d c9b4 533d 48ad c93c
00000110: 0210 703d eefb da3c b4a2 563e 6e05 323e
00000120: 5612 d13d f7bf 833d 6c04 293d bbbe a43d
00000130: e29d e03d 278a a73d d239 3d3d f4f0 923d
00000140: 0485 c13d af42 063e 3f93 713c 0101 653d
00000150: 7ad0 a23d 4e1b 613d eca3 673d b71c 843c
00000160: b567 073e 252e 033d 817e 183d e190 253c
00000170: c447 393e 5e1c 4a3d d5fa a63d df7e 2b3e
00000180: 0758 243e ed71 9f3c 7657 003e 0c32 2f3d
00000190: ca7e 0d3d d94b 963d 98d5 353d 1ca8 633d
000001a0: 6dc7 8b3e 0ee8 c23d 3d10 963c aaaf 263d
000001b0: 9b3e 073e 3266 d03d 487f 173e c981 483d
000001c0: 4972 803c 83a5 443d 36eb 303e fb48 503e
000001d0: 73d0 353d 0d00 793d 5de0 d13d a261 593e
000001e0: 6633 7d3d 4a08 743c b9f1 d53d d373 7a3d
000001f0: 83c9 953d 9cde 803c 368b 823c fe3f 4c3d
00000200: 6b0e 943d deed ca3d 9da0 503d 61ea 973d
00000210: a89c 3a3d cc18 0a3e 7420 db3c fec0 a53d
00000220: be7c 3e3d 90c8 b43d 622d 3c3d 5473 383d
00000230: 1ac6 323e 94ff 7e3e b459 103e 0fdb d33d
00000240: dd12 043d eb40 a73c 2bc7 4b3d 2835 b23d
00000250: 82e5 f33d b8a8 133d ad8e d13d 71a9 033d
00000260: d9f6 b93d 68a0 493c d7d3 563d ff9f 033e
00000270: 5f09 cd3c 399c 083e 41d1 073d e9fd d93d
00000280: 7dba 143d 039e 1d3c f0a0 173e 1d60 eb3d
00000290: 9688 093e 7f32 943d d64e 523d 4eda 783d
000002a0: 8f00 253e 5a38 cd3d 9484 e43d fe71 a53d
000002b0: 1a08 d03d d047 ea3c b4cb 453d b10b 013d
000002c0: cb90 953d e3ec 393d ad00 873d 98a3 0c3e
000002d0: a647 103d 852b 2b3d 56d0 003d 42db 9b3c
000002e0: 08d5 a33d ba37 143d dcae 443d 8888 fc3d
000002f0: bd3a 103d 5393 c73c 5c07 cd3c 64e4 a43c
00000300: ea9d 003e 3a91 d33d 5081 b03d c462 ed3c
00000310: 9d0f dc3c 6021 2e3e 23e4 b33d d32b 013e
00000320: aa9f 653e ad66 cd3d 3e38 943c e3c8 a23d
00000330: dbb7 0e3e cc7f 8a3d e0f0 ac3d 379c a93d
00000340: 1e66 d73d ecc4 943d 46ed 573d 4b5e a63d
00000350: ca70 2e3d a017 823e ec95 c93d c706 213d
00000360: 41eb 133e 4f99 6d3d 2104 e33c 5c30 643d
00000370: 7411 023e 18da 0c3e 69e3 5b3d e8b0 013d
00000380: 0b82 eb3d 17d5 f83c eb59 cd3d a2ee 9f3d
00000390: 1d8f 2f3e a556 443d 2b33 413d 3231 593d
000003a0: d2ed 453c 617b 183d bdb7 3a3d 0337 a13d
000003b0: 5382 3f3d b19f 663d 37dc 1c3d 38e3 553d
000003c0: 54a4 b13d d241 a53c d5f8 d93d 2359 e93d
000003d0: 5caa 373d d2e8 d23d 97ae 873d 57b4 413d
000003e0: 4d6d 393d 1d1d 723d 3c60 2c3c 9d91 6f3d
000003f0: 6f39 643d e2be 1b3d 74ae 713d d730 8c3d

fc2.weight f4 [128, 256]
-0.016777232 0.030725094 0.008890553 0.055516005 0.01429096 0.040179633 0.04700848 0.05301166
-0.036790583 0.019598892 0.06500179 0.0046517504 -0.05834193 0.050931178 0.03467504 0.046638574
0.009493787 -0.024428403 -0.05712804 -0.050316393 -0.052672055 0.034165654 0.048908617 -0.012291528
-0.010476173 -0.025111008 -0.029860975 -0.002147672 -0.031460837 0.018690545 0.050836336 -0.0006261453
-0.034857035 -0.060760718 0.04212933 -0.03192169 -0.04664628 -0.0077809384 0.038355026 -0.04080671
0.03592808 0.030100096 0.015781235 -0.026771596 0.043766703 0.0030162684 -0.045263197 0.0029772688
0.016496005 -0.015159553 0.048519578 0.00833823 0.003591554 -0.040396318 -0.054402076 -0.061768904
0.021277817 -0.029697258 0.04158289 -0.040131792 -3.7753405e-05 -0.00091059867 0.029602487 0.0129178995
-0.0011524113 0.032429755 0.055233415 -0.047942728 -0.051078618 -0.046275187 0.0089024 -0.041953925
0.057725135 0.046876796 -0.02721447 -0.021864267 -0.054957356 -0.0029448469 0.0020335563 -0.05216862
0.01789978 0.006706558 0.01863577 -0.02677575 0.045220822 0.007705322 0.04661638 -0.0060052937
0.0030942876 -0.013686 -0.02158168 0.048683964 -0.03825943 -0.021485876 -0.053475317 -0.04780255
-0.04123885 -0.048237998 -0.051082082 0.020452127 -0.0055368855 0.042438313 0.034224853 0.03650611
0.060197443 -0.019663218 -0.018523104 -0.0058693048 0.03411181 -0.03473376 -0.03201205 -0.032803956
-0.049225897 0.024726884 -0.060944404 -0.047994047 0.057576727 0.05988402 -0.0313594 0.019168673
-0.060564388 0.030708933 -0.040550195 0.020105124 -0.002227318 -0.026819138 0.030719195 0.020285858
-0.04317261 0.04036981 -0.00972271 -0.012138501 -0.00055018294 -0.012818567 -0.013797359 -0.02532769
-0.055234417 0.007884889 0.016637586 0.0260313 0.018707717 0.025048992 -0.0036698997 0.045511868
-0.009775478 -0.048653025 -0.06301145 -0.06137325 0.03926113 0.018217767 -0.038788814 -0.0037526719
0.03338351 -0.011829656 -0.049617704 -0.051934984 -0.061552975 -0.022853808 -0.056413785 0.034324914
0.037790615 0.06042576 0.01896543 0.013741995 0.04205587 -0.035628043 0.0046926 -0.023284882
-0.05944983 0.0025721884 0.029946288 0.06056817 -0.057823937 -0.021444704 -0.015849717 -0.021085136
-0.05017754 0.03807195 0.0033976818 -0.020057239 -0.005500968 -0.046981815 0.011266535 -0.018634718
0.02476348 0.016566692 -0.047859628 -0.005307321 -0.053640537 -0.034707747 0.011605627 -0.0030687354
-0.0376791 0.03884189 -0.031360418 -0.0032189833 0.024699084 0.049877293 0.061306063 -0.05300701
-0.017066857 -0.043086443 0.011669102 -0.0025528145 -0.06281164 -0.041078627 0.053675137 -0.015396971
-0.049598522 -0.027396021 0.008680059 0.057161767 0.010092085 0.02087332 -0.056839153 0.0030940745
-0.04422824 0.03031578 -0.034862448 0.04083102 -0.020924723 -0.033145577 -0.024317004 0.026765436
0.032849327 0.04152497 0.03629189 -0.033522636 -0.0076908474 -0.044180952 0.026590416 0.004287877
-0.026393486 -0.041270066 0.058390662 -0.0509646 0.019115612 -0.046443317 0.060672104 -1.7567096e-05
-0.06137449 0.011854204 -0.011033353 -0.03228389 -0.038363356 0.0228525 0.008877873 0.039453775
0.042894766 0.004185966 -0.0094904285 -0.017202467 0.019620258 -0.055033315 0.008194891 0.03661798
00000000: 6870 89bc 31b3 fb3c afa9 113c c064 633d
00000010: a124 6a3c 6693 243d f78b 403d c122 593d
00000020: b9b1 16bd db8d a03c a91f 853d b66d 983b
00000030: f3f7 6ebd 369d 503d 6a07 0e3d 1708 3f3d
00000040: d48b 1b3c 131e c8bc 17ff 69bd 9018 4ebd
00000050: a7be 57bd 49f1 0b3d 6754 483d 6862 49bc
00000060: 41a4 2bbc 9ab5 cdbc 019f f4bc f5bf 0cbb
00000070: 14dd 00bd ea1c 993c c339 503d e623 24ba
00000080: 40c6 0ebd 3be0 78bd ce8f 2c3d 51c0 02bd
00000090: 2b10 3fbd 3ef7 febb 291a 1d3d f024 27bd
000000a0: 5329 133d 7a94 f63c a647 813c 1b50 dbbc
000000b0: b744 333d 96ac 453b e765 39bd 481e 433b
000000c0: a122 873c c65f 78bc 77bc 463d 129d 083c
000000d0: 4760 6b3b 9c76 25bd b6d4 5ebd 6401 7dbd
000000e0: d14e ae3c aa47 f3bc d252 2a3d 3c61 24bd
000000f0: 6959 1eb8 3eb5 6eba ea80 f23c 99a5 533c
00000100: 820c 97ba 10d5 043d 6f3c 623d 985f 44bd
00000110: d037 51bd 0d8b 3dbd 5fdb 113c e1d7 2bbd
00000120: 3171 6c3d e201 403d e1f0 debc b11c b3bc
00000130: f71a 61bd 55fe 40bb 6a45 053b c3ae 55bd
00000140: 8fa2 923c b0c2 db3b 0baa 983c d158 dbbc
00000150: 7839 393d ed7c fc3b d1f0 3e3d 0ec8 c4bb
00000160: 88c9 4a3b 3f3b 60bc 10cc b0bc d668 473d
00000170: ecb5 1cbd 2603 b0bc ef08 5bbd 9bcc 43bd
00000180: 12ea 28bd 3595 45bd 723b 51bd 388b a73c
00000190: c36e b5bb ccd3 2d3d 5c2f 0c3d 6e87 153d
000001a0: 9891 763d c214 a1bc c4bd 97bc 4c53 c0bb
000001b0: d3b8 0b3d fd44 0ebd 111f 03bd 715d 06bd
000001c0: 18a1 49bd 0990 ca3c d7a0 79bd 6895 44bd
000001d0: 93d5 6b3d f248 753d b772 00bd 9f07 9d3c
000001e0: 5d12 78bd 4d91 fb3c f617 26bd 80b3 a43c
000001f0: 32f8 11bb cfb3 dbbc d2a6 fb3c 872e a63c
00000200: c3d5 30bd d05a 253d 004c 1fbc 90e0 46bc
00000210: 273a 10ba f804 52bc 510e 62bc 047c cfbc
00000220: 7c3d 62bd 9f2f 013c 8c4b 883c 983f d53c
00000230: ed40 993c 8b33 cd3c b382 70bb a76a 3a3d
00000240: 5429 20bc 6548 47bd 260c 81bd 8462 7bbd
00000250: 47d0 203d 6d3d 953c 05e1 1ebd 63ef 75bb
00000260: 26bd 083d 2cd1 41bc ef3b 4bbd c7b9 54bd
00000270: f91e 7cbd e937 bbbc 2412 67bd 4898 0c3d
00000280: 55ca 1a3d 0081 773d 645d 9b3c 1b26 613c
00000290: c742 2c3d b6ee 11bd 62c4 993b f0bf bebc
000002a0: aa81 73bd 2992 283b eb51 f53c 5416 783d
000002b0: cbd8 6cbd ceac afbc 44d7 81bc bcba acbc
000002c0: f786 4dbd 55f1 1b3d a4ab 5e3b 144f a4bc
000002d0: 7741 b4bb 0170 40bd 4697 383c d6a7 98bc
000002e0: c8dc ca3c dfb6 873c 7508 44bd 09e9 adbb
000002f0: 2eb6 5bbd b629 0ebd 8725 3e3c d61c 49bb
00000300: 6655 1abd ac18 1f3d c873 00bd 94f5 52bb
00000310: bc55 ca3c 224c 4c3d 111c 7b3d e11d 59bd
00000320: cbcf 8bbc 697b 30bd c32f 3f3c 1f4d 27bb
00000330: 64a3 80bd 1042 28bd 76da 5b3d 9443 7cbc
00000340: d227 4bbd 9f6d e0bc ce36 0e3c 7522 6a3d
00000350: 4659 253c 86fe aa3c 2cd0 68bd f5c5 4a3b
00000360: ac28 35bd cc58 f83c edcb 0ebd 6d3e 273d
00000370: 536a abbc a8c3 07bd 7434 c7bc 3043 db3c
00000380: 048d 063d 1616 2a3d cea6 143d 084f 09bd
00000390: 8103 fcbb 16f7 34bd 25d4 d93c 5281 8c3b
000003a0: 2737 d8bc cd0a 29bd 0c2b 6f3d 42c0 50bd
000003b0: 5898 9c3c 593b 3ebd 5083 783d 0d5d 93b7
000003c0: d163 7bbd 2338 423c 3dc5 34bc 1d3c 04bd
000003d0: e522 1dbd 2b35 bb3c 8074 113c 489a 213d
000003e0: 6cb2 2f3d 6e2a 893b be7d 1bbc 30ec 8cbc
000003f0: aaba a03c 9d6a 61bd dd43 063c bcfc 153d

fc2.bias f4 [128]
0.029021934 -0.013227812 0.03807088 0.014315641 -0.007065115 0.062322233 0.035317436 -0.024862738
-0.0450468 -0.016410016 0.026695123 0.049914014 0.03919606 0.0032632796 0.034377787 -0.0464977
-0.008155663 -0.015968796 -0.0025058817 0.026772311 -0.04090078 -0.061092746 0.035981152 -0.01691811
0.030659243 -0.019765994 -0.057245865 0.048931193 0.037561182 -0.03206773 -0.044896387 0.020458365
-0.053416133 0.042449012 0.00814788 0.042487286 0.04206733 -0.061264005 -0.05001169 0.033901755
-0.023733279 -0.036192678 0.02388467 0.015217905 -0.016938075 0.008530441 -0.04178022 -0.022990884
-0.019173104 -0.050111633 0.047445152 0.016245447 -0.03199634 -0.0066624363 0.043096527 -0.040366832
-0.03330835 -0.05026322 0.043617133 -0.030743387 0.0014724637 -0.0025709113 -0.026141252 0.022087818
-0.05151914 0.02733715 -0.025346652 0.009862448 0.011836782 0.039431546 0.06085794 0.03194191
-0.023040777 0.028948635 -0.0025775128 0.03981408 0.019019792 -0.0038674485 -0.02601367 -0.061463162
0.0015067772 0.0528693 -0.028883563 -0.0322933 0.022373708 0.0145969475 -0.0011065948 0.014396405
-0.05267752 0.046753183 0.006468235 0.054970596 0.001789329 -0.039211407 0.011859001 -0.028668618
-0.04444986 0.02202358 0.061075952 -0.0075362134 0.048923895 -0.04412764 -0.04353291 -0.049776018
-0.014754572 -0.016010031 -0.027184786 0.03865054 -0.023806572 0.027938055 -0.051920857 0.0018390607
0.0022932028 0.062160447 -0.02494889 0.0088325245 0.020796295 0.0034847066 -0.0019564864 0.055793855
0.007565082 -0.024782002 -0.028488515 0.008365472 -0.0006410345 0.03992222 0.019328773 0.05088782
00000000: 68bf ed3c 77b9 58bc 36f0 1b3d 268c 6a3c
00000010: 7b82 e7bb 9945 7f3d 04a9 103d f1ac cbbc
00000020: fe82 38bd 4c6e 86bc bbaf da3c a372 4c3d
00000030: 0c8c 203d bfdc 553b b9cf 0c3d 5f74 3ebd
00000040: 549f 05bc fed0 82bc b839 24bb 9b51 db3c
00000050: 9487 27bd 633c 7abd f960 133d d997 8abc
00000060: 1829 fb3c 4bec a1bc a47a 6abd 136c 483d
00000070: c1d9 193d 7459 03bd 46e5 37bd 4d98 a73c
00000080: e0ca 5abd 04df 2d3d b07e 053c 2607 2e3d
00000090: cb4e 2c3d f7ef 7abd 0fd9 4cbd 91dc 0a3d
000000a0: 4b6c c2bc c63e 14bd c9a9 c33c 8554 793c
000000b0: b8c1 8abc 43c3 0b3c bc21 2bbd 6157 bcbc
000000c0: ea10 9dbc db41 4dbd d955 423d 2c15 853c
000000d0: 980e 03bd 9150 dabb fc85 303d b157 25bd
000000e0: 566e 08bd cee0 4dbd e1a7 323d 8ed9 fbbc
000000f0: afff c03a bc7c 28bb 2e26 d6bc 83f1 b43c
00000100: bc05 53bd 29f2 df3c c8a3 cfbc 1b96 213c
00000110: 10ef 413c f982 213d 2d46 793d 85d5 023d
00000120: 03c0 bcbc b025 ed3c 7deb 28bb 1714 233d
00000130: 65cf 9b3c 0575 7dbb 9f1a d5bc ccc0 7bbd
00000140: 0e7f c53a 7b8d 583d 399d ecbc fb45 04bd
00000150: 1149 b73c 0928 6f3c 290b 91ba e6de 6b3c
00000160: 62c4 57bd 4480 3f3d 7df3 d33b d928 613d
00000170: eb87 ea3a 249c 20bd 414c 423c 73da eabc
00000180: 0e11 36bd cb6a b43c c72a 7a3d 57f2 f6bb
00000190: 6c64 483d 2fbf 34bd 914f 32bd f0e1 4bbd
000001a0: 29bd 71bc 7827 83bc a1b2 debc 0750 1e3d
000001b0: 0006 c3bc 59de e43c f7aa 54bd a30c f13a
000001c0: 8f49 163b f49b 7e3d 9d61 ccbc 4bb6 103c
000001d0: fe5c aa3c ad5f 643b 6538 00bb 1988 643d
000001e0: 82e4 f73b a003 cbbc bf60 e9bc 550f 093c
000001f0: 190b 28ba 7b85 233d 6057 9e3c bf6f 503d

bn2.weight f4 [128]
0.9994146 1.0019736 1.0030237 0.9959103 1.0028162 0.99594927 1.0035138 0.99953026
0.99855405 1.0017155 1.0008466 1.0004224 1.0004176 1.0023012 0.99795216 1.0034729
1.0007368 0.9995291 1.0022279 1.0010467 0.9989981 0.9997909 1.0023744 0.99857247
0.9977623 0.99613 1.0017993 0.99911475 1.0016837 0.998418 0.9978998 1.0023241
0.9979289 1.0003339 0.9962928 0.99758726 1.0016297 1.0023966 0.99379414 1.0041623
1.0002135 0.99853325 1.0023522 1.0040792 0.9976873 1.0028243 1.0028725 1.0044197
1.0039036 0.99801207 1.0017965 0.99734014 1.0012648 0.99846166 0.9949305 1.003601
0.9953464 0.9999764 1.0009623 0.99697703 1.0009403 1.0033317 0.9991225 1.0020734
0.9963537 0.9983846 1.0007299 0.99662894 0.9980368 0.9969582 0.9973394 0.99962616
0.9985268 1.0024377 1.0059396 0.99783504 0.9988603 1.0006074 1.0057563 0.9959607
1.0005344 1.0019304 1.000084 0.9988863 0.9988559 1.0022734 1.0049336 0.9976459
0.99829894 1.0038681 0.99971646 0.99526083 0.9980508 0.9947844 0.9954181 1.0041364
1.0044096 0.99818516 1.0020595 1.0027643 0.99872756 0.99585044 0.99688685 0.99838996
0.9957726 1.0024418 1.000414 0.997119 0.9948185 0.9982894 0.9991271 0.99785894
0.9973746 0.9990445 1.0045091 0.9984163 0.99689746 0.9945127 0.9985642 0.99745387
0.99483615 0.9979085 1.0040696 0.9955649 0.9944215 0.99709076 1.0029457 1.0030483
00000000: a3d9 7f3f ac40 803f 1563 803f faf3 7e3f
00000010: 485c 803f 88f6 7e3f 2473 803f 37e1 7f3f
00000020: 3da1 7f3f 3738 803f be1b 803f d70d 803f
00000030: af0d 803f 684b 803f cb79 7f3f cd71 803f
00000040: 2518 803f 24e1 7f3f 0149 803f 4c22 803f
00000050: 57be 7f3f 4cf2 7f3f ce4d 803f 72a2 7f3f
00000060: 5a6d 7f3f 6002 7f3f f63a 803f fcc5 7f3f
00000070: 2c37 803f 5298 7f3f 5c76 7f3f 284c 803f
00000080: 4578 7f3f f10a 803f 0c0d 7f3f e161 7f3f
00000090: 6735 803f 884e 803f 4b69 7e3f 6488 803f
000000a0: ff06 803f e09f 7f3f 144d 803f ab85 803f
000000b0: 6f68 7f3f 8c5c 803f 205e 803f d390 803f
000000c0: ea7f 803f b87d 7f3f de3a 803f af51 7f3f
000000d0: 7229 803f 2f9b 7f3f c4b3 7e3f ff75 803f
000000e0: 06cf 7e3f 74fe 7f3f 881f 803f e339 7f3f
000000f0: d01e 803f 2c6d 803f 7ec6 7f3f f143 803f
00000100: 0911 7f3f 2296 7f3f eb17 803f 1323 7f3f
00000110: 577f 7f3f a738 7f3f a351 7f3f 80e7 7f3f
00000120: 749f 7f3f e14f 803f a1c2 803f 1e72 7f3f
00000130: 4fb5 7f3f e713 803f 9fbc 803f 48f7 7e3f
00000140: 8311 803f 413f 803f c102 803f 03b7 7f3f
00000150: 05b5 7f3f 7f4a 803f aaa1 803f b965 7f3f
00000160: 8590 7f3f c07e 803f 6bed 7f3f 6ac9 7e3f
00000170: 4280 7f3f 31aa 7e3f b8d3 7e3f 8b87 803f
00000180: 7e90 803f 1089 7f3f 7c43 803f 955a 803f
00000190: 9cac 7f3f 0ef0 7e3f fa33 7f3f 7c96 7f3f
000001a0: f4ea 7e3f 0350 803f 910d 803f 3143 7f3f
000001b0: 6dac 7e3f e58f 7f3f cbc6 7f3f af73 7f3f
000001c0: f153 7f3f 61c1 7f3f c193 803f 3698 7f3f
000001d0: ac34 7f3f 6298 7e3f e7a1 7f3f 2359 7f3f
000001e0: 95ad 7e3f ee76 7f3f 5a85 803f 57dd 7e3f
000001f0: 6892 7e3f 5741 7f3f 8660 803f e363 803f
