custom/user_classifier.pt (torch, 967558 bytes, 19 tensors)

fc1.weight f4 [256, 768]
0.0037795538 -0.026544522 0.034075156 -0.007759197 -0.004641946 -0.001498645 0.019538948 0.008484084
-0.014065174 0.02558879 0.010264445 -0.0077405227 0.031499982 -0.015278947 -0.014749513 0.018231088
0.009724403 0.02964973 -0.012156603 0.016474873 -0.021810815 -0.018748524 -0.0072810627 0.03547612
0.01904636 -0.01943283 -0.009203988 0.01290457 -0.016429083 -0.033023424 0.013626057 -0.027327262
-0.018329209 0.02131341 0.03504848 0.0038454405 -0.016966918 -0.008829661 0.0016660653 -0.0064673107
0.028216213 -0.028526193 -0.024627436 0.026356911 0.030044654 -0.0066402867 -0.0027554485 0.014053696
-0.0053287316 0.006420624 0.020379297 -0.009616938 -0.010291739 0.029307429 0.009442969 -0.008202463
0.030822774 -0.033823565 0.016984306 0.0018650349 -0.012992961 0.000605692 0.0034751298 -0.018258283
-0.009594625 0.031421617 -0.026552608 -0.0046968823 -0.03195485 -0.013061951 0.027104389 -0.008862395
-0.02018184 0.012449661 0.019411378 -0.0055625592 -0.014267986 -0.031129345 -0.032360278 0.024425581
0.02306543 0.0051464196 -0.01143106 0.018207388 0.03712641 0.009385303 0.031499665 -0.0083027715
-0.033917587 -0.026312672 -0.028597968 -0.03449545 0.022878317 0.031059861 -0.028863586 -0.032329697
0.02743088 0.034083232 -0.0003188019 0.012660205 0.004148841 0.032008946 -0.027884105 0.029738331
0.022330415 -0.014543753 0.028367095 -0.032397047 -0.008496723 -0.008406627 0.013416203 -0.023606054
-0.030921157 0.02444629 0.030641202 0.03468126 -0.008658189 0.014767938 -0.010476222 -0.02538024
-0.00010762847 0.031239115 0.029161286 0.008825127 -0.0146895405 0.029600041 0.014813843 0.033238254
-0.015978618 0.012804011 0.0039723166 0.02219128 0.03270092 0.024514318 0.0142717585 0.0043970435
0.019154735 0.032000314 -0.0029122522 0.015100409 -0.007847448 -0.012289758 0.02346106 -0.034471158
0.002846226 -0.033290185 0.034055065 -0.02288586 -0.011480772 -0.0016455752 -0.023771029 -0.010375544
-0.0070059686 -0.01230173 0.021835081 -0.03277369 -0.03531346 -0.019432673 -0.00663896 -0.011673538
0.028071515 0.015684348 0.010992235 0.010153581 -0.027207222 -0.028255427 0.030821143 -0.028129138
-0.011074826 0.028559145 -0.014128498 -0.009572326 -0.0036165284 -0.01423612 -0.0070057604 -0.029971628
0.015248589 0.012012737 -0.00411559 0.03416161 -0.0061550955 -0.006540554 0.00039254883 0.008949337
0.004010564 -0.023640921 -0.033220313 0.019690039 -0.03033807 0.022117842 0.01762813 -0.024821477
0.0029972245 0.024245137 0.0107510965 0.003350226 0.027147863 -0.009701162 -0.03225338 0.014830749
0.010793434 -0.011336976 -0.0060904305 -0.007698561 -0.026436714 0.010050592 0.022412512 -0.015742628
0.023612054 -0.03245392 0.012960007 0.027416544 0.029007722 -0.026617076 0.00041393982 -0.007184779
-0.005547678 -0.000803536 0.021355556 0.015579335 0.011261173 0.0053883414 -0.019620322 0.02860454
0.010113322 0.0021960998 0.03018315 -0.031221176 0.010153307 -0.00446495 -0.024972267 0.0011676431
-0.028958023 -0.025334712 -0.031793874 -0.024867237 -0.029219609 0.017229786 0.019432947 -0.0040065735
0.02635438 -0.012116386 -0.021313129 -0.015737178 -0.025015742 0.014059683 -0.02434127 -0.017006904
-0.032972347 0.008114541 0.024918877 0.016681153 0.025983963 0.005662423 0.0048947115 0.022605767
00000000: 64b2 773b e673 d9bc 6492 0b3d dd40 febb
00000010: 771b 98bb 2f6e c4ba 2510 a03c d400 0b3c
00000020: 9e71 66bc 959f d13c 342c 283c 36a4 fdbb
00000030: 2006 013d 8c54 7abc f1a7 71bc 5d59 953c
00000040: 1a53 1f3c fee3 f23c 7d2c 47bc 50f6 863c
00000050: 98ac b2bc 8196 99bc fb95 eebb 684f 113d
00000060: 1d07 9c3c 9931 9fbc 53cc 16bc b16d 533c
00000070: 4996 86bc 9243 07bd d33f 5f3c 6cdd dfbc
00000080: 2327 96bc 7699 ae3c ff8e 0f3d c903 7c3b
00000090: 35fe 8abc 48aa 10bc e05f da3a bceb d3bb
000000a0: b025 e73c c3af e9bc 7abf c9bc 73ea d73c
000000b0: 3520 f63c c396 d9bb c194 34bb 7941 663c
000000c0: a49c aebb 1964 d23b 7cf2 a63c 5d90 1dbc
000000d0: af9e 28bc 2216 f03c afb6 1a3c a063 06bc
000000e0: 0b80 fc3c 948a 0abd ac22 8b3c 3074 f43a
000000f0: 6ee0 54bc 4dc7 1e3a 01bf 633b 6592 95bc
00000100: c632 1dbc f4b3 003d db84 d9bc 4ee8 99bb
00000110: 17e3 02bd cb01 56bc 060a de3c 9433 11bc
00000120: 6354 a5bc aaf9 4b3c 9c04 9f3c 2146 b6bb
00000130: 45c4 69bc f802 ffbc 368c 04bd 2818 c83c
00000140: b6f3 bc3c 4ca3 a83b 5749 3bbc a927 953c
00000150: dd11 183d d0c4 193c cb05 013d 5908 08bc
00000160: 2bed 0abd ac8d d7bc 4946 eabc 1a4b 0dbd
00000170: 4f6b bb3c 4071 fe3c 5473 ecbc 256c 04bd
00000180: bab6 e03c dc9a 0b3d de24 a7b9 c06c 4f3c
00000190: 00f3 873b d01b 033d 356d e4bc cd9d f33c
000001a0: 46ee b63c ec48 6ebc 1c62 e83c c4b2 04bd
000001b0: d735 0bbc f3bb 09bc a2cf 5b3c 7c61 c1bc
000001c0: 5e4e fdbc 9643 c83c 4203 fb3c f00d 0e3d
000001d0: 14db 0dbc 39f5 713c 76a4 2bbc 39ea cfbc
000001e0: 98b6 e1b8 2ce9 ff3c a6e3 ee3c 4497 103c
000001f0: 66ac 70bc c97b f23c c3b5 723c d624 083d
00000200: 97e5 82bc eac7 513c 352a 823b 7dca b53c
00000210: 66f1 053d 40d2 c83c 18d4 693c 1315 903b
00000220: 64ea 9c3c c312 033d 7cdb 3ebb b567 773c
00000230: 9592 00bc fb5a 49bc 6931 c03c a131 0dbd
00000240: c087 3a3b 4a5b 08bd 537d 0b3d 217b bbbc
00000250: d919 3cbc 57b0 d7ba 76bb c2bc 30fe 29bc
00000260: 5392 e5bb 328d 49bc 7cdf b23c b43d 06bd
00000270: d9a4 10bd 4531 9fbc a28b d9bb 5e42 3fbc
00000280: 3cf6 e53c 767c 803c c618 343c 355b 263c
00000290: aee1 debc ed77 e7bc 9f7c fc3c 146f e6bc
000002a0: 3073 35bc def4 e93c 377b 67bc 3fd5 1cbc
000002b0: 4703 6dbb 9d3e 69bc 9490 e5bb 0f87 f5bc
000002c0: 38d5 793c 12d1 443c 12dc 86bb 0bed 0b3d
000002d0: afb0 c9bb 2552 d6bb 03cf cd39 3da0 123c
000002e0: 0d6b 833b 9baa c1bc 0612 08bd 014d a13c
000002f0: 8b87 f8bc 7a30 b53c de68 903c 6956 cbbc
00000300: 156d 443b bd9d c63c 5e25 303c 778f 5b3b
00000310: 3265 de3c 9ff1 1ebc 1f1c 04bd abfc 723c
00000320: f2d6 303c b9be 39bc 3c92 c7bb 3644 fcbb
00000330: cf91 d8bc 3dab 243c 729a b73c aff6 80bc
00000340: 116e c13c 67ee 04bd 3656 543c a998 e03c
00000350: 9aa1 ed3c 0e0c dabc 1006 d939 4b6e ebbb
00000360: 4cc9 b5bb 63a4 52ba d9f1 ae3c 7840 7f3c
00000370: c880 383c af90 b03b ccba a0bc 1154 ea3c
00000380: 59b2 253c 71ec 0f3b a742 f73c 8dc3 ffbc
00000390: 0e5a 263c b74e 92bb a492 ccbc 9a0b 993a
000003a0: 6039 edbc be8a cfbc 4b3a 02bd 60b6 cbbc
000003b0: f65d efbc 7b25 8d3c d831 9f3c 9349 83bb
000003c0: 24e5 d73c ce83 46bc df98 aebc 41eb 80bc
000003d0: d0ed ccbc 965a 663c 5867 c7bc 1052 8bbc
000003e0: 030e 07bd daf2 043c ac22 cc3c eaa6 883c
000003f0: 52dc d43c d98b b93b d163 a03b bb2f b93c

fc1.bias f4 [256]
-0.015705232 -0.006186897 0.018735794 -0.010999656 0.021830738 -0.0065966384 0.03315444 0.016427573
0.0013576583 0.016909102 0.034715857 -0.005236284 -0.009088699 0.015266242 0.02187144 0.033458926
0.02561749 0.0026049917 -0.032875802 0.020516107 0.02397549 0.012914666 -0.011822692 -0.027847104
-0.009624411 -0.023392681 0.021570452 0.006869125 -0.015416341 -0.026327644 -0.0038837548 0.025399998
-0.0059984303 -0.0018690694 -0.031488154 0.018519476 0.011351805 0.009157494 -0.023661502 0.036587805
0.011623913 0.014558606 -0.023135263 -0.030960545 -0.000669084 0.005291309 0.03507684 -0.002686551
0.032813556 0.02900838 -0.034808904 0.004543149 0.021349411 -0.0064202547 0.021276053 -0.017334523
-0.0292862 0.008301839 -0.024968406 -0.0145386085 -0.030547716 -0.0054276446 0.01887589 -0.032309264
0.007843137 -0.0049720807 -0.008261426 0.026244927 -0.0021114922 0.024229744 0.026596962 0.010324065
-0.006388289 -0.019868381 -0.017624348 -0.008365063 0.029560989 0.015052315 0.031223817 -0.034105077
-0.022889901 0.0027294129 -0.008349747 0.031369884 -0.024008766 0.0031656728 -0.031226352 0.026995162
-0.016030319 -0.025265135 -0.030103492 -0.020876946 0.0339751 -0.010308128 -0.013200187 0.022344068
0.0046911007 0.034369793 -0.032383725 -0.018724151 -0.011352889 -0.029964691 -0.017151989 -0.0043282965
-0.027861588 -0.034769714 -0.010015329 0.01625743 -0.016190106 -0.022641499 -0.0031792722 0.004583099
-0.01766837 0.021451524 -0.030798415 0.018924477 0.0023886121 -0.02177546 -0.013794465 -0.012730576
-0.0074517424 -0.012081197 0.03608026 0.031248236 -0.0023985067 0.001545989 -0.021660052 0.017574083
-0.0011263292 0.007277142 -0.0355532 0.011195205 0.011485957 -0.009195299 -0.012396248 0.03160081
0.015469714 -0.035207193 -0.013987393 -0.03399853 0.015012405 -0.02678924 -0.033762883 0.015315138
0.030857064 -0.007317494 -0.024356378 0.034415506 0.030090645 -0.012547243 -0.03058365 -0.011992126
0.031504493 -0.029007982 0.0026719482 -0.033919774 0.018729636 -0.011554981 0.027137857 0.031796385
0.029125089 0.008680753 0.011868606 -0.026220907 -0.006733293 -0.0038414258 0.035540603 -1.0624695e-05
-0.024012206 -0.0031536778 0.008650835 -0.005830231 0.010199996 0.00781881 -0.02476018 0.013374945
-0.01863527 0.015877333 -0.02376125 -0.011613152 -0.03049511 0.005415217 -0.0070055197 -0.027340857
0.012232683 0.021112677 -0.024128387 0.013582986 -0.02085196 0.004809464 0.0058819246 -0.00665562
-0.0036047231 0.025671775 0.018363448 -0.013446036 0.0017675563 -0.011266117 0.026888466 0.029159589
0.017655978 -0.007946019 -0.033147324 -0.020884236 0.01486051 -0.018666144 0.002623529 0.02564938
-0.0018775475 0.01080283 -0.018389681 0.02493119 -0.02492005 -0.032641005 -0.012940637 0.014428912
0.019349663 -0.010328732 0.015700227 -0.031360038 -0.023833128 0.016641088 0.015759544 0.0042629694
0.009483638 -0.034476332 0.02407219 -0.019807978 0.030944968 0.015382868 -0.018592311 -0.028704138
-0.035930987 -0.0097778635 -0.013342329 0.030668395 0.0034072583 0.031753324 -0.018952599 0.012696444
-0.030723853 -0.025419228 0.009917328 -0.029691322 0.033441756 -0.002467166 0.01848353 -0.010607447
-0.035634454 0.025509248 -0.010325189 -0.0042961864 -0.023725081 -0.007599049 -0.02650018 0.023074878
00000000: 42a8 80bc 74bb cabb cf7b 993c e737 34bc
00000010: 60d6 b23c 9d28 d8bb f3cc 073d 1e93 863c
00000020: 74f3 b13a f584 8a3c 3732 0e3d 2295 abbb
00000030: c4e8 14bc 431f 7a3c bc2b b33c 3a0c 093d
00000040: c5db d13c 82b8 2a3b c7a8 06bd 6511 a83c
00000050: 3f68 c43c 0998 533c f7b3 41bc 9c1f e4bc
00000060: b5af 1dbc 02a2 bfbc 84b4 b03c 6616 e13b
00000070: d294 7cbc 12ad d7bc 9886 7ebb a813 d03c
00000080: 7b8e c4bb 90fb f4ba b9f9 00bd 28b6 973c
00000090: ecfc 393c 5009 163c c4d5 c1bc 18dd 153d
000000a0: 3a72 3e3c 3887 6e3c 2a86 bdbc f8a0 fdbc
000000b0: 7865 2fba b862 ad3b bcac 0f3d d910 30bb
000000c0: 8267 063d fba2 ed3c c893 0ebd b2de 943b
000000d0: f6e4 ae3c 0061 d2bb 1e4b ae3c 2101 8ebc
000000e0: 9de9 efbc 7004 083c 8b8a ccbc 5833 6ebc
000000f0: 343f fabc 62da b1bb 9ca1 9a3c b856 04bd
00000100: 8080 003c d6ec a2bb ef5a 07bc 9aff d63c
00000110: f660 0abb 757d c63c dfe1 d93c 4426 293c
00000120: da54 d1bb 04c3 a2bc f060 90bc 9e0d 09bc
00000130: e329 f23c fc9d 763c 17c9 ff3c c4b1 0bbd
00000140: 9a83 bbbc f3df 323b 61cd 08bc b57d 003d
00000150: 08ae c4bc 2d77 4f3b 68ce ffbc f524 dd3c
00000160: 0452 83bc d4f8 cebc 999b f6bc 2106 abbc
00000170: 7929 0b3d 6ce3 28bc 9945 58bc e80a b73c
00000180: ceb7 993b 57c7 0c3d cca4 04bd 6463 99bc
00000190: 7801 3abc 8378 f5bc 5482 8cbc 62d4 8dbb
000001a0: fc3d e4bc b06a 0ebd 5617 24bc 4d2e 853c
000001b0: 1da1 84bc aa7a b9bc 565b 50bb d22d 963b
000001c0: 42bd 90bc 1bbb af3c f54c fcbc 8107 9b3c
000001d0: 438a 1c3b 7362 b2bc 2e02 62bc e893 50bc
000001e0: bf2d f4bb 37f0 45bc e5c8 133d 4dfc ff3c
000001f0: 4430 1dbb c8a2 ca3a 6c70 b1bc 86f7 8f3c
00000200: 56a1 93ba 1775 ee3b 3ba0 11bd 186c 373c
00000210: 982f 3c3c e1a7 16bc a219 4bbc da6f 013d
00000220: af74 7d3c 6b35 10bd 612b 65bc 0b42 0bbd
00000230: 97f6 753c 1c75 dbbc f34a 0abd 58ec 7a3c
00000240: f4c7 fc3c 97c7 efbb 0787 c7bc 46f7 0c3d
00000250: a880 f63c f492 4dbc 908a fabc 9f7a 44bc
00000260: db0a 013d 26a2 edbc da1b 2f3b 76ef 0abd
00000270: e56e 993c 1a51 3dbc 3650 de3c ed3c 023d
00000280: bd97 ee3c b839 0e3c 8b74 423c 3acd d6bc
00000290: f5a2 dcbb 6ec0 7bbb 0693 113d b840 32b7
000002a0: 3fb5 c4bc efad 4ebb 3bbc 0d3c 860b bfbb
000002b0: e21d 273c 771a 003c dcd5 cabc 9622 5b3c
000002c0: fea8 98bc 2e11 823c f4a6 c2bc 1745 3ebc
000002d0: e2d0 f9bc 2272 b13b 8f8e e5bb eff9 dfbc
000002e0: 976b 483c 7ef4 ac3c e5a8 c5bc 2c8b 5e3c
000002f0: bbd1 aabc b598 9d3b 29bd c03b 6317 dabb
00000300: 383d 6cbb 9d4d d23c f16e 963c c34c 5cbc
00000310: 59ad e73a 8595 38bc 3345 dc3c 17e0 ee3c
00000320: 45a3 903c 0530 02bc 7dc5 07bd 6b15 abbc
00000330: 7f79 733c bee9 98bc 83ef 2b3b a61e d23c
00000340: 0a18 f6ba 5afe 303c f5a5 96bc 7f3c cc3c
00000350: 2225 ccbc 93b2 05bd f704 54bc 3e67 6c3c
00000360: 2f83 9e3c d839 29bc c39d 803c 6273 00bd
00000370: b13d c3bc e452 883c 291a 813c 61b0 8b3b
00000380: 4361 1b3c 0e37 0dbd 0b33 c53c 5744 a2bc
00000390: 4d80 fd3c 6d08 7c3c e74e 98bc f124 ebbc
000003a0: 5f2c 13bd 5533 20bc c999 5abc 493c fb3c
000003b0: 4f4c 5f3b c60f 023d 7b42 9bbc bf04 503c
000003c0: 97b0 fbbc fc3b d0bc 4a7c 223c 373b f3bc
000003d0: 39fa 083d 2db0 21bb c66a 973c dbca 2dbc
000003e0: 6ff5 11bd c5f8 d03c fb2a 29bc 06c7 8cbb
000003f0: 1a5b c2bc 7101 f9bb e816 d9bc 8707 bd3c

bn1.weight f4 [256]
0.99867624 1.0002741 1.002873 1.0016229 0.99759537 0.9982214 1.0014489 0.9972232
1.0014513 1.0003079 0.9985157 1.0018992 0.99924463 0.9978049 1.0014386 1.0007405
1.0002162 1.0002146 1.001496 1.0022322 1.0000299 1.0001303 0.9986718 0.99909973
1.0009252 1.0030131 1.001138 0.9996058 0.99822116 1.0019312 0.9994536 1.0015414
0.99994487 0.9984386 0.9983685 1.0011919 1.0007427 0.99952585 1.0017406 1.0019137
0.99908286 1.0017254 0.9987825 1.0007037 0.9982592 0.99815863 0.99942714 1.0012646
1.0003757 1.0018339 0.9996998 0.99863726 0.9997354 0.99982876 0.9985496 0.9986685
1.0027494 1.0028654 1.0019844 1.0005205 0.9996238 0.9987515 0.9992021 1.000836
1.0005075 1.0011169 1.0027615 0.9999863 0.9992224 1.0015767 1.0017213 0.99762034
0.9988293 0.9998417 0.9997194 1.0006154 0.99931794 0.9989863 1.0010431 1.0011802
0.9985382 0.9997041 1.0014882 1.00083 0.9974087 1.0000676 0.99895656 1.0004189
0.99745494 1.0018238 1.0004065 1.0012661 0.9983161 1.0007321 0.9998366 1.0013952
0.9998031 1.0012114 0.9994609 1.0001484 1.0011878 1.0002496 1.0020384 1.0004895
1.0005052 0.99667656 1.0014404 0.9980247 0.9977774 1.0011623 0.99820197 1.0004725
1.0015334 0.9977725 1.0008409 0.99765384 0.9985767 0.99993914 1.0012815 1.0013388
0.9985631 0.99944293 0.9994575 0.9996017 1.0007799 0.9991937 1.0012896 1.001653
1.0004749 0.9999442 0.99881667 1.0020819 1.0008034 0.9980794 0.9996804 0.9991613
0.9987683 1.0008343 0.99880695 0.9989793 1.0007536 1.0000648 1.0037323 1.0001293
0.99971974 0.9986157 0.9975335 1.0004436 0.99781775 1.0031016 1.0018657 1.0003511
0.9996636 1.0012401 0.9980082 1.000676 0.9980733 1.001378 0.99815315 0.99938196
1.0016563 1.002522 0.9998404 0.9997492 0.99917966 0.998721 0.9994313 0.99837404
1.000351 0.9988568 0.9995529 1.0002733 0.9985602 1.0021052 1.0025328 0.9990731
0.99902135 1.0015827 0.99817336 1.0004544 1.0002657 1.0006814 0.99918073 1.0009128
1.0002023 0.9983047 1.0002487 0.997909 0.9985985 1.0000527 1.0000854 0.99935925
1.0005387 1.0020497 0.9980452 1.0001041 1.0008966 1.0008317 1.0003582 0.99724853
0.99812067 1.0025647 0.99870926 0.9980373 1.002392 1.0008919 0.999064 1.0009755
0.9973862 1.0006778 1.00164 1.0030458 0.9998003 1.0000285 1.001538 0.9983819
0.9984706 0.9999689 1.0006554 0.99949056 1.0008674 1.0002495 0.99813825 1.002882
1.002018 1.0013869 1.0014169 1.0014956 0.9993741 0.99875987 0.99707913 0.99906945
1.0003502 0.99958193 0.99799085 0.99778813 1.0018986 0.9980396 1.002119 1.0021977
0.9986065 1.00162 0.99904263 1.0014393 0.9997718 1.0006075 0.9992834 0.99984235
1.0001469 0.99938637 1.004143 0.9998882 0.9971435 1.0006632 0.9981885 0.99869424
00000000: 3fa9 7f3f fb08 803f 245e 803f 2e35 803f
00000010: 6962 7f3f 708b 7f3f 7a2f 803f 054a 7f3f
00000020: 8e2f 803f 170a 803f ba9e 7f3f 3c3e 803f
00000030: 7fce 7f3f 2470 7f3f 242f 803f 4418 803f
00000040: 1607 803f 0807 803f 0531 803f 2549 803f
00000050: fb00 803f 4504 803f f5a8 7f3f 00c5 7f3f
00000060: 511e 803f bc62 803f 4a25 803f 2ae6 7f3f
00000070: 6c8b 7f3f 483f 803f 31dc 7f3f 8232 803f
00000080: 63fc 7f3f ac99 7f3f 1495 7f3f 0e27 803f
00000090: 5618 803f ede0 7f3f 0939 803f b53e 803f
000000a0: e5c3 7f3f 8a38 803f 36b0 7f3f 0f17 803f
000000b0: ea8d 7f3f 5387 7f3f 75da 7f3f 7029 803f
000000c0: 500c 803f 183c 803f 53ec 7f3f b1a6 7f3f
000000d0: a9ee 7f3f c7f4 7f3f f2a0 7f3f bda8 7f3f
000000e0: 185a 803f e55d 803f 0641 803f 0e11 803f
000000f0: 58e7 7f3f 2eae 7f3f b5cb 7f3f 651b 803f
00000100: a110 803f 9924 803f 7d5a 803f 1aff 7f3f
00000110: 0acd 7f3f aa33 803f 6738 803f 0c64 7f3f
00000120: 47b3 7f3f a0f5 7f3f 9ced 7f3f 2a14 803f
00000130: 4dd3 7f3f 91bd 7f3f 2e22 803f ac26 803f
00000140: 33a0 7f3f 9cec 7f3f c430 803f 331b 803f
00000150: 2d56 7f3f 3702 803f 9ebb 7f3f ba0d 803f
00000160: 3559 7f3f c33b 803f 520d 803f 7d29 803f
00000170: a591 7f3f fd17 803f 4bf5 7f3f b82d 803f
00000180: 19f3 7f3f b227 803f abdc 7f3f dd04 803f
00000190: ec26 803f 2e08 803f cb42 803f 0a10 803f
000001a0: 8e10 803f 3226 7f3f 332f 803f 8c7e 7f3f
000001b0: 576e 7f3f 1626 803f 2a8a 7f3f 7c0f 803f
000001c0: 3f32 803f 056e 7f3f 8e1b 803f 3e66 7f3f
000001d0: b9a2 7f3f 03fc 7f3f fe29 803f df2b 803f
000001e0: d5a1 7f3f 7edb 7f3f 72dc 7f3f e6e5 7f3f
000001f0: 8e19 803f 29cb 7f3f 422a 803f 2a36 803f
00000200: 900f 803f 58fc 7f3f 73b2 7f3f 3844 803f
00000210: 531a 803f 2282 7f3f 0eeb 7f3f 09c9 7f3f
00000220: 48af 7f3f 571b 803f d0b1 7f3f 1bbd 7f3f
00000230: b218 803f 2002 803f 4d7a 803f 3d04 803f
00000240: a2ed 7f3f 47a5 7f3f 5b5e 7f3f 890e 803f
00000250: fc70 7f3f a265 803f 233d 803f 810b 803f
00000260: f4e9 7f3f a328 803f 777d 7f3f 2716 803f
00000270: bb81 7f3f 282d 803f f786 7f3f 7fd7 7f3f
00000280: 4636 803f a452 803f 8af5 7f3f 90ef 7f3f
00000290: 3dca 7f3f 2eac 7f3f bbda 7f3f 7195 7f3f
000002a0: 800b 803f 14b5 7f3f b3e2 7f3f f508 803f
000002b0: a4a1 7f3f fc44 803f ff52 803f 41c3 7f3f
000002c0: ddbf 7f3f dd33 803f 4a88 7f3f e40e 803f
000002d0: b508 803f 5416 803f 4fca 7f3f e91d 803f
000002e0: a106 803f e690 7f3f 2608 803f f776 7f3f
000002f0: 27a4 7f3f ba01 803f cc02 803f 02d6 7f3f
00000300: a711 803f 2a43 803f e47f 7f3f 6903 803f
00000310: 611d 803f 411b 803f bd0b 803f ae4b 7f3f
00000320: d684 7f3f 0a54 803f 69ab 7f3f 5f7f 7f3f
00000330: 624e 803f 3a1d 803f a9c2 7f3f f71f 803f
00000340: b454 7f3f 3616 803f bd35 803f ce63 803f
00000350: eaf2 7f3f ef00 803f 6632 803f f595 7f3f
00000360: c59b 7f3f f6fd 7f3f 7a15 803f 9dde 7f3f
00000370: 6c1c 803f 2d08 803f fd85 7f3f 705e 803f
00000380: 2042 803f 722d 803f 6e2e 803f 0231 803f
00000390: fbd6 7f3f baae 7f3f 9440 7f3f 04c3 7f3f
000003a0: 7a0b 803f 9ae4 7f3f 547c 7f3f 0b6f 7f3f
000003b0: 373e 803f 867f 7f3f 6f45 803f 0448 803f
000003c0: ada4 7f3f 1635 803f 42c1 7f3f 2a2f 803f
000003d0: 0bf1 7f3f e813 803f 09d1 7f3f abf5 7f3f
000003e0: d004 803f c9d7 7f3f c287 803f acf8 7f3f
000003f0: cc44 7f3f bb15 803f 4889 7f3f 6daa 7f3f

bn1.bias f4 [256]
-0.0025865308 -0.00023834857 -0.0009404396 -0.00018385742 -0.0025144506 -0.0025684058 0.0016888706 -0.0020760938
0.0013989937 -0.000937439 -0.0010133985 0.0011746355 -0.0018044679 -0.0012736835 -0.00073646824 0.0004539157
-0.00058344676 -0.000337314 0.0023911246 -9.946359e-05 -0.0016470401 0.0006304248 8.962067e-05 0.0004740897
0.00052123074 0.0005261021 0.0018504673 0.0005485425 -0.0018621676 0.0016849005 -0.00075468305 0.0005004196
0.002307621 -0.0021811745 0.0006261651 -0.00080831687 -0.0009958728 -0.0012092463 0.0013170181 0.0011454877
-0.0006737789 -0.00024724356 -0.002086428 0.0011330781 -0.0018867145 -0.002314681 -0.0014208419 0.0014144187
-0.0012984548 0.0019485242 0.00013717604 -0.00085950806 -0.0011920149 0.00037635813 -0.0026501508 -0.0005055933
0.0025843992 0.00241674 0.0018379525 0.0020403678 -0.001242391 -6.656974e-05 -0.00035058666 0.00068660977
0.0019885774 -3.6336165e-05 0.001518338 -0.00080575346 -0.0014940263 -0.001993167 0.00058335817 -0.002818071
0.0008243419 -0.00043866428 -0.00032029016 0.0009697826 0.0012725927 1.8310013e-05 -0.0018649684 0.0009826245
-0.0008607259 -0.0018592889 -0.001759062 0.0003128561 -0.002145687 0.0007810249 -0.0018001392 0.00059330364
1.5844462e-05 0.0027831583 0.0007830025 -8.6849104e-05 -0.0020446845 0.00064228487 -0.0010816599 -0.00089567027
0.00061418617 0.0019142525 -0.0008698956 0.0021250602 -9.889849e-05 0.0010457663 -0.0006714349 0.0015104662
0.0006966477 -0.0015096697 0.00226889 -0.0010001292 -0.0014799221 0.0015078705 0.0012071038 0.00034995764
0.002646848 0.00042344822 -0.00088424556 -0.00054905226 -0.0018243646 -0.0019392798 0.0015819533 -0.00050206576
-0.0010129212 0.0014604414 -0.0018907059 -0.0010403295 0.00018483381 5.107513e-05 0.00075959595 0.0020003852
0.0016864778 0.0018177304 -0.0005428288 0.002173701 0.002192045 -0.000953992 -0.0009098802 -0.002671531
-0.00055236556 0.0005909154 -0.0024601487 -0.0010070311 -0.0016480398 0.0021192739 0.0010703255 0.00035036847
-0.001330694 -0.0015641237 -0.0021796501 0.0010527513 -0.0019794323 0.0034559793 0.0014896275 0.0019230836
-0.0013211959 -0.00037245775 -0.0002864449 0.00038252503 -0.00015081641 -0.0007322088 -0.00042132384 -0.00026313512
0.00077259773 0.002050796 1.7909322e-05 -0.0024673883 -6.8381276e-05 -8.425946e-07 -0.00030402862 -0.0016303038
-0.0007478965 -0.0012207703 0.00062961073 0.0006881581 -0.0024061576 0.0011413314 0.0020606322 0.0011951568
1.3228702e-05 -0.0017705695 -0.0022106613 0.0007090993 -0.0005473607 -0.0008696157 -0.0004833404 -0.0013480547
0.0012535613 -0.001958554 -0.0016077176 -0.001550082 -8.197297e-05 -0.0005704177 0.00036938282 -0.0005850718
9.743258e-05 -0.0006922289 -0.002332744 -0.00082550105 0.0012157931 0.0010931644 -0.00082510326 -0.0027154733
-0.00048276488 0.0020442014 -0.0015717981 -0.00082776026 0.000291202 0.001130637 -0.0006384003 -0.00042069014
-0.0017849114 -0.00023947292 0.003308805 0.0023901376 0.0008474017 0.0019331385 -0.0005715797 0.0014434266
-0.0009360518 6.299799e-05 4.771372e-05 0.0005704813 0.0006910598 0.00013523884 -0.0005815301 0.001424038
0.0023126323 0.0012866452 0.0016537705 0.00041453008 -0.0010435596 -8.389659e-06 0.00081861735 0.0008232347
-0.00073475705 0.0009791759 -0.0006463369 -0.002443562 0.0022265406 -0.0020582955 0.0017159145 0.0030541827
-0.00093030103 -0.0003328709 0.00061627926 0.0020912439 -0.00026839104 -0.000773446 -0.0004903328 -0.00092521583
0.0010199023 -4.4988876e-05 0.0014457338 -0.0014018964 -0.0030714562 -0.00046370542 -0.0015066434 -0.0017432293
00000000: c982 29bb 35ed 79b9 d587 76ba dac9 40b9
00000010: 7bc9 24bb b352 28bb 185d dd3a 130f 08bb
00000020: 705e b73a 77be 75ba 03d4 84ba 3af6 993a
00000030: e583 ecba baf1 a6ba 8c0f 41ba 89fb ed39
00000040: 73f2 18ba 85d9 b0b9 6ab4 1c3b 1c97 d0b8
00000050: 7fe1 d7ba 1843 253a bbf2 bb38 3e8f f839
00000060: 34a3 083a 1dea 093a 618b f23a 10cc 0f3a
00000070: fa13 f4ba e1d7 dc3a ecd5 45ba 972e 033a
00000080: 753b 173b 09f2 0ebb 3b25 243a 3ae5 53ba
00000090: f287 82ba 937f 9eba cb9f ac3a 3024 963a
000000a0: 89a0 30ba 78a0 81b9 74bc 08bb cb83 943a
000000b0: a24b f7ba e7b1 17bb 8b3b baba 0464 b93a
000000c0: ea30 aaba 9f65 ff3a ead6 0f39 9c50 61ba
000000d0: 623d 9cba ef51 c539 27ae 2dbb cb89 04ba
000000e0: 065f 293b 2b62 1e3b 74e7 f03a b1b7 053b
000000f0: b9d7 a2ba 5b9b 8bb8 f2ce b7b9 9afd 333a
00000100: cb52 023b a967 18b8 f802 c73a 3339 53ba
00000110: 34d3 c3ba cb9f 02bb 81ec 183a 63af 38bb
00000120: a618 583a 86fc e5b9 9eec a7b9 0239 7e3a
00000130: 20cd a63a 7498 9937 f571 f4ba 68cb 803a
00000140: 56a2 61ba 62b3 f3ba 5490 e6ba d606 a439
00000150: a79e 0cbb b2bd 4c3a a6f2 ebba ef87 1b3a
00000160: b9e9 8437 a665 363b 6942 4d3a c222 b6b8
00000170: 1d00 06bb 025f 283a 7cc6 8dba 6acb 6aba
00000180: 5601 213a a8e7 fa3a b509 64ba 9844 0b3b
00000190: b967 cfb8 1812 893a 3c03 30ba d6fa c53a
000001a0: 3c9f 363a 1ce0 c5ba a8b1 143b c416 83ba
000001b0: f2f9 c1ba bda3 c53a af37 9e3a 857a b739
000001c0: be76 2d3b 4202 de39 b7cc 67ba 46ee 0fba
000001d0: 851f efba 6f2f feba 8b59 cf3a 109d 03ba
000001e0: ffc3 84ba 486c bf3a 90d1 f7ba aa5b 88ba
000001f0: f3cf 4139 8139 5638 9f1f 473a e518 033b
00000200: ce0c dd3a e940 ee3a a04c 0eba a774 0e3b
00000210: 6aa8 0f3b 5215 7aba 0785 6eba da14 2fbb
00000220: a0cc 10ba a9e7 1a3a 723a 21bb 5bfe 83ba
00000230: 0a03 d8ba 84e3 0a3b 2a4a 8c3a a9b1 b739
00000240: ae6a aeba 4803 cdba 76d8 0ebb 79fc 893a
00000250: 5db9 01bb b67d 623b 9b3f c33a fa0f fc3a
00000260: fa2b adba 6f46 c3b9 fc2d 96b9 a48d c839
00000270: 7924 1eb9 b3f1 3fba 21e5 dcb9 66f5 89b9
00000280: 2888 4a3a a666 063b fa3b 9637 e8b3 21bb
00000290: eb67 8fb8 a92e 62b5 0866 9fb9 ebaf d5ba
000002a0: 7c0e 44ba 4102 a0ba 760c 253a 8265 343a
000002b0: a0b0 1dbb ba98 953a ac0b 073b cfa6 9c3a
000002c0: d8f0 5d37 7412 e8ba bee0 10bb d9e2 393a
000002d0: c17c 0fba ecf6 63ba da68 fdb9 36b1 b0ba
000002e0: 8a4e a43a 155b 00bb 0dba d2ba 1f2c cbba
000002f0: e7e8 abb8 1588 15ba b9a9 c139 815f 19ba
00000300: b854 cc38 b276 35ba f3e0 18bb 7066 58ba
00000310: 3f5b 9f3a 8348 8f3a be4b 58ba 15f6 31bb
00000320: 9b1b fdb9 02f8 053b cb04 ceba 0dfe 58ba
00000330: 79ac 9839 e231 943a 525a 27ba 1390 dcb9
00000340: b0f3 e9ba 061b 7bb9 89d8 583b dba3 1c3b
00000350: 2a24 5e3a 5d61 fd3a 10d6 15ba 5c31 bd3a
00000360: 5f61 75ba ca1d 8438 3720 4838 5a8c 153a
00000370: 3d28 353a e6ce 0d39 d371 18ba c9a6 ba3a
00000380: 888f 173b a6a4 a83a 54c3 d83a 4955 d939
00000390: 0dc8 88ba 50c1 0cb7 7b98 563a 58ce 573a
000003a0: b69c 40ba b157 803a ef6e 29ba 2b24 20bb
000003b0: 27eb 113b 78e4 06bb 89e8 e03a af28 483b
000003c0: 72df 73ba 2d85 aeb9 cd8d 213a 400d 093b
000003d0: d6b6 8cb9 15c1 4aba ad89 00ba 2f8a 72ba
000003e0: 3eae 853a 70b2 3cb8 c77e bd3a d6bf b7ba
000003f0: 7c4a 49bb 7d1d f3b9 907a c5ba 127d e4ba

bn1.running_mean f4 [256]
-0.13082466 0.059815135 0.17476635 0.20798649 0.30817866 -0.26144612 0.45539555 0.41814825
-0.18612617 -0.80313545 -0.0691118 0.5125041 0.31915578 -0.2378577 0.5349432 0.40309134
-0.099809706 0.065256715 -0.18099236 -0.08374538 0.5050941 0.20891255 -0.105684504 -0.11621555
0.1808569 0.049353465 0.30005255 0.30398703 -0.07517238 0.01991267 -0.06374295 0.25834176
0.2023395 -0.018335165 -0.36598113 -0.1862762 0.2511426 -0.47930914 -0.22357489 0.37981483
0.06305815 -0.18764341 -0.18389232 -0.073509276 -0.7924724 0.2408038 0.16271225 -0.39953643
0.32792252 -0.060910914 0.28351837 -0.1741454 0.64566505 -0.052323207 0.4002723 0.47363368
6.128475e-05 -0.65737075 0.45782048 -0.18771783 0.10771197 0.15809815 0.41654655 0.00016286691
-0.33295164 -0.119227454 -0.03784078 0.4241159 0.10054625 -0.9793747 -0.038139407 0.019686215
0.30618495 -0.15397765 0.15128921 -0.10265951 -0.2602823 0.07870952 0.0024327778 -0.42684424
0.00245513 -0.17678384 0.041861214 -0.25806704 0.028103868 -0.25636712 -0.5202602 0.5958088
-0.029280089 -0.18840909 0.02950678 0.49349242 0.47363305 -0.44878334 0.42210275 0.18646596
0.06797569 -0.17516018 0.02183349 -0.10975396 0.3754735 -0.113909796 0.1013874 -0.32311085
-0.20585105 -0.5359611 0.15287735 0.43353283 0.2974441 0.26020825 -0.055116884 -0.0536584
-0.34638676 0.033815414 -0.29018885 -0.009147069 -0.37010852 -0.10396849 -0.049532425 -0.15184799
-0.4055807 0.056153353 -0.112369016 0.088339604 -0.45055306 0.64275914 0.019883834 -0.18098864
-0.25594684 -0.053953376 -0.0074254205 -0.007950822 -0.57622784 -0.02385143 -0.103214875 -0.017874693
-0.1982704 -0.28479427 -0.18486041 -0.39275533 -0.21297973 0.21006706 0.18242215 -0.09852834
-0.10936179 0.41834366 -0.514627 1.066954 -0.56031865 0.8085774 0.17778777 -0.27517354
0.1000498 -0.04001077 0.1795603 0.14497657 0.13484313 -0.05824113 0.38227373 0.07403081
-0.2887115 -0.26350588 -0.27892607 -0.009448619 0.34507373 0.21872094 -0.29842332 0.15114233
0.11276277 0.055118002 -0.23749617 0.018887678 -0.18879044 0.3310658 0.0036403367 0.16064787
-0.4511979 0.5263948 -0.17748679 -0.08688647 0.6695734 -0.18056734 0.01878141 -0.09404929
-0.15725903 -0.27708152 -0.33766294 0.28579584 -0.38228372 -0.45124516 -0.094658196 0.07194097
-0.3143139 0.058386635 -0.5002868 0.344133 -0.1822284 -0.540248 0.29128766 0.5303467
0.26214722 0.1959296 -0.1224439 0.022613825 0.23645428 0.003305574 -0.24470037 -0.41116205
-0.2961385 -0.019300908 -0.5084731 0.33510107 0.19039561 -0.5505576 -0.124899216 0.20888259
-0.4240029 -0.34649116 0.0982634 -0.07638472 0.20817678 0.223844 0.21144988 -0.24476016
0.2114791 0.139547 -0.09748086 -0.019185841 0.082366005 0.74586254 -0.2056984 -0.8813172
-0.045501597 0.37424242 0.09278842 -0.15358293 0.28363252 -0.022907725 -0.25098726 0.8720762
-0.054520026 0.0004426669 0.21199577 -0.4776846 -0.1063183 -0.27882057 -0.08791135 -0.16278434
0.24660055 -0.31098092 0.024111854 0.11876778 -0.27562782 0.43349612 -0.67617154 0.033784192
00000000: e6f6 05be b700 753d f3f5 323e 69fa 543e
00000010: 98c9 9d3e 44dc 85be 9b29 e93e 8717 d63e
00000020: dc97 3ebe 499a 4dbf 7d8a 8dbd 7833 033f
00000030: 6368 a33e f890 73be 0af2 083f fd61 ce3e
00000040: 0869 ccbd 50a5 853d 1056 39be b382 abbd
00000050: d94d 013f 2ced 553e 1e71 d8bd 6b02 eebd
00000060: 8d32 393e dc26 4a3d 7da0 993e 30a4 9b3e
00000070: faf3 99bd e51f a33c aa8b 82bd 5f45 843e
00000080: 1632 4f3e a133 96bc e161 bbbe 30bf 3ebe
00000090: c395 803e 0268 f5be d1f0 64be 1777 c23e
000000a0: a224 813d 9825 40be 454e 3cbe 088c 96bd
000000b0: 79df 4abf 4595 763e 0a9e 263e 0a90 ccbe
000000c0: 76e5 a73e b97d 79bd 5229 913e 2c53 32be
000000d0: 4e4a 253f dc50 56bd 7ef0 cc3e 1d80 f23e
000000e0: 0086 8038 7349 28bf 7267 ea3e 1a39 40be
000000f0: 1898 dc3d 7be4 213e 9745 d53e 41c7 2a39
00000100: a378 aabe 862d f4bd effe 1abd b825 d93e
00000110: 31eb cd3d 4db8 7abf 1138 1cbd fc44 a13c
00000120: 46c4 9c3e 51ac 1dbe 8feb 1a3e 263f d2bd
00000130: b943 85be 7532 a13d 3d6f 1f3b 548b dabe
00000140: 3fe6 203b d306 35be aa76 2b3d 5d21 84be
00000150: 153a e63c 8d42 83be c62f 05bf ed86 183f
00000160: ccdc efbc 50ee 40be 34b8 f13c 0aab fc3e
00000170: 0880 f23e eec6 e5be da1d d83e eff0 3e3e
00000180: d736 8b3d 315d 33be 26dc b23c afc6 e0bd
00000190: 103e c03e 8a49 e9bd 32a4 cf3d c96e a5be
000001a0: 9eca 52be bf34 09bf e18b 1c3e 04f8 dd3e
000001b0: 984a 983e 043a 853e 3ec2 61bd e9c8 5bbd
000001c0: 9b59 b1be 0882 0a3d a293 94be 97dd 15bc
000001d0: dd7e bdbe 6fed d4bd 83e2 4abd 0a7e 1bbe
000001e0: 46a8 cfbe 0f01 663d ba21 e6bd 65eb b43d
000001f0: e4ae e6be dd8b 243f 6ce3 a23c 1655 39be
00000200: 770b 83be 37fe 5cbd f150 f3bb 2a44 02bc
00000210: ab83 13bf 1364 c3bc 5262 d3bd f36d 92bc
00000220: 6507 4bbe 8ed0 91be 0c4c 3dbe 3a17 c9be
00000230: 5c17 5abe d21b 573e dfcc 3a3e 3ac9 c9bd
00000240: 13f9 dfbd 2431 d63e 98be 03bf f391 883f
00000250: 0b71 0fbf eefe 4e3f ff0d 363e 8ce3 8cbe
00000260: e9e6 cc3d 55e2 23bd a8de 373e bd74 143e
00000270: 5114 0a3e 408e 6ebd 62b9 c33e 779d 973d
00000280: fed1 93be 3eea 86be 66cf 8ebe 61ce 1abc
00000290: 81ad b03e 62f8 5f3e f1ca 98be 0ec5 1a3e
000002a0: 2bf0 e63d 6ac3 613d 3232 73be 55ba 9a3c
000002b0: 4852 41be 7581 a93e b792 6e3b e080 243e
000002c0: 6903 e7be cfc1 063f 19bf 35be 89f1 b1bd
000002d0: 2a69 2b3f a5e6 38be 79db 993c ea9c c0bd
000002e0: 8308 21be a1dd 8dbe 28e2 acbe d553 923e
000002f0: b1ba c3be 9b09 e7be 28dc c1bd ca55 933d
00000300: c0ed a0be d326 6f3d cc12 00bf 3332 b03e
00000310: 159a 3abe b14d 0abf a823 953e cdc4 073f
00000320: 2938 863e c5a1 483e dec3 fabd a140 b93c
00000330: 1221 723e 54a2 583b bc92 7abe d583 d2be
00000340: 779f 97be f01c 9ebc 4b2b 02bf 5e92 ab3e
00000350: 11f7 423e 58f1 0cbf 29cb ffbd 51e5 553e
00000360: e816 d9be 4a67 b1be 523e c93d 986f 9cbd
00000370: 4b2c 553e 5d37 653e 5186 583e 68a2 7abe
00000380: fa8d 583e 69e5 0e3e 0ca4 c7bd a02b 9dbc
00000390: 82af a83d d9f0 3e3f 9aa2 52be 019e 61bf
000003a0: e25f 3abd b49c bf3e db07 be3d d844 1dbe
000003b0: 4838 913e fba8 bbbc 6781 80be 6340 5f3f
000003c0: 6450 5fbd bf15 e839 6b15 593e 1393 f4be
000003d0: 69bd d9bd 92c1 8ebe de0a b4bd f0b0 26be
000003e0: db84 7c3e e438 9fbe 3986 c53c 863c f33d
000003f0: 171f 8dbe 34f3 dd3e 9419 2dbf 4b61 0a3d

bn1.running_var f4 [256]
0.039582126 0.05437034 0.022219552 0.02064032 0.064925164 0.100918956 0.0782188 0.055114113
0.020231172 0.043629214 0.05099221 0.024692109 0.075798765 0.06663052 0.021540005 0.034799095
0.023484102 0.07588774 0.056951158 0.027019633 0.03134328 0.03236864 0.052999318 0.04681355
0.019252941 0.04611577 0.03134256 0.043026682 0.019894166 0.06755093 0.022953743 0.044769373
0.01714974 0.060460348 0.048218604 0.022038339 0.021930406 0.025136117 0.048876043 0.025572177
0.044120215 0.040051296 0.04124571 0.041737895 0.05012368 0.038479812 0.038839776 0.023221757
0.06230411 0.041584566 0.03470496 0.040680327 0.054666888 0.049903464 0.066243514 0.0655829
0.016447248 0.034953743 0.061386835 0.052160926 0.03230404 0.078465976 0.030244641 0.025043448
0.028841803 0.02850448 0.033071127 0.12470149 0.052994665 0.040596996 0.068765506 0.031610724
0.039162137 0.022468956 0.060772046 0.05206964 0.014212272 0.025414241 0.045475975 0.0388418
0.06778267 0.06982287 0.022370636 0.03709064 0.038375966 0.0588914 0.05485556 0.11926964
0.05500694 0.025142219 0.05968438 0.055592343 0.03609087 0.02100568 0.039218247 0.043303136
0.04288178 0.037197202 0.04544639 0.038514372 0.08540488 0.06928125 0.017979484 0.02296178
0.024706684 0.047916528 0.11303937 0.05071701 0.060525235 0.054947436 0.047673836 0.028774396
0.056259874 0.052279685 0.03617428 0.049788 0.03295891 0.054508783 0.067570746 0.018129056
0.05944771 0.07932707 0.05341305 0.024668392 0.05061347 0.03779091 0.0652044 0.036610678
0.024380472 0.027707702 0.041368324 0.048399456 0.053704035 0.019012796 0.08409664 0.053959776
0.03167356 0.027304426 0.05184477 0.03591849 0.053491335 0.04604695 0.01738873 0.047784578
0.02918653 0.023249224 0.029536102 0.036563624 0.07652315 0.016942527 0.08760868 0.09033107
0.023487153 0.03475608 0.04542673 0.057900246 0.06893144 0.012968225 0.072992094 0.064022355
0.026668515 0.06562471 0.026961971 0.07414833 0.033404414 0.033400357 0.03387476 0.041050974
0.02622507 0.042924095 0.048412792 0.039081175 0.039005388 0.055770434 0.051373143 0.054704234
0.06525446 0.047386967 0.08348149 0.058721412 0.039808404 0.036279235 0.03883299 0.040529612
0.05614056 0.03984013 0.08080889 0.116027296 0.048884213 0.065097846 0.041836906 0.03564036
0.063204 0.035889447 0.059349593 0.028174942 0.0450555 0.028141692 0.028722312 0.053003978
0.03623509 0.027122594 0.04083051 0.0185593 0.025914649 0.05185947 0.057285152 0.08847719
0.058835857 0.07232987 0.032033112 0.046432246 0.028969768 0.10185714 0.021533659 0.044226006
0.029158536 0.054241136 0.07738384 0.031935614 0.04274967 0.024966467 0.035347123 0.03609738
0.039943513 0.048227068 0.027914323 0.115035534 0.044329677 0.039554007 0.052739974 0.040280644
0.056722853 0.040976923 0.07317825 0.03713421 0.029503537 0.052322023 0.020374779 0.055082265
0.035608914 0.022243459 0.04367061 0.04338938 0.041095078 0.059989277 0.03977752 0.033447
0.05575559 0.029479684 0.026766341 0.078680925 0.03161532 0.05099512 0.03688101 0.040248834
00000000: de20 223d 6fb3 5e3d c705 b63c e315 a93c
00000010: 7cf7 843d 99ae ce3d 2e31 a03d 56bf 613d
00000020: d8bb a53c 8cb4 323d 35dd 503d 1b47 ca3c
00000030: 623c 9b3d 9575 883d aa74 b03c 7f89 0e3d
00000040: bb61 c03c 086b 9b3d 9e45 693d 4758 dd3c
00000050: d061 003d fb94 043d d015 593d 91bf 3f3d
00000060: 58b8 9d3c e4e3 3c3d 0e61 003d bf3c 303d
00000070: 17f9 a23c 2458 8a3d 7d09 bc3c 1760 373d
00000080: 9d7d 8c3c 45a5 773d df80 453d bf89 b43c
00000090: 65a7 b33c 42ea cd3c 3f32 483d be7c d13c
000000a0: 66b7 343d d40c 243d 43f1 283d 5bf5 2a3d
000000b0: 7d4e 4d3d 029d 1d3d 7516 1f3d 8e3b be3c
000000c0: 9832 7f3d 9454 2a3d ca26 0e3d 6aa0 263d
000000d0: 63ea 5f3d 9367 4c3d aeaa 873d 5450 863d
000000e0: 61bc 863c a82b 0f3d c370 7b3d b2a6 553d
000000f0: 3e51 043d c5b2 a03d 9cc3 f73c eb27 cd3c
00000100: a545 ec3c 3a82 e93c 9775 073d 7f63 ff3d
00000110: ef10 593d 0949 263d eed4 8c3d 3f7a 013d
00000120: 7a68 203d d110 b83c 1cec 783d fa46 553d
00000130: 97da 683c 8731 d03c 0445 3a3d 9418 1f3d
00000140: a4d1 8a3d 4bff 8e3d a042 b73c 5bec 173d
00000150: 1e30 1d3d 1c38 713d 39b0 603d a443 f43d
00000160: f54e 613d 0ef7 cd3c 9c77 743d ccb4 633d
00000170: 05d4 133d 1b14 ac3c 50a3 203d a15e 313d
00000180: cea4 2f3d 185c 183d fe25 3a3d 3fc1 1d3d
00000190: c1e8 ae3d 54e3 8d3d b649 933c 581a bc3c
000001a0: ac65 ca3c 1f44 443d 2f81 e73d a4bc 4f3d
000001b0: 4fe9 773d 9010 613d a445 433d 48b8 eb3c
000001c0: c170 663d 3923 563d 7b2b 143d 80ee 4b3d
000001d0: ecff 063d 9a44 5f3d 8862 8a3d 6383 943c
000001e0: 717f 733d 3b76 a23d a4c7 5a3d 5e15 ca3c
000001f0: 1250 4f3d a4ca 1a3d e289 853d 14f5 153d
00000200: 8eb9 c73c 43fb e23c d571 293d 823e 463d
00000210: c3f8 5b3d b9c0 9b3c dc3a ac3d ed04 5d3d
00000220: 23bc 013d 88ad df3c 2e5b 543d 441f 133d
00000230: bb19 5b3d ba9b 3c3d cf72 8e3c c3b9 433d
00000240: 9718 ef3c 2875 be3c b2f5 f13c bdc3 153d
00000250: 2bb8 9c3d 0ecb 8a3c 2e6c b33d 7fff b83d
00000260: 2168 c03c 645c 0e3d 6111 3a3d cf28 6d3d
00000270: ed2b 8d3d ae78 543c e17c 953d 271e 833d
00000280: ee77 da3c 3f66 863d 5adf dc3c 14db 973d
00000290: 11d3 083d d0ce 083d 43c0 0a3d 1125 283d
000002a0: f5d5 d63c 2dd1 2f3d 7e4c 463d 9513 203d
000002b0: 1dc4 1f3d 8a6f 643d a56c 523d 8c11 603d
000002c0: 21a4 853d d618 423d 58f8 aa3d dd85 703d
000002d0: 230e 233d 8999 143d 570f 1f3d 6102 263d
000002e0: a5f3 653d 672f 233d 227f a53d b89f ed3d
000002f0: d03a 483d 0552 853d 2d5d 2b3d a0fb 113d
00000300: 1971 813d d000 133d 8f18 733d 23cf e63c
00000310: 1e8c 383d 6889 e63c 0e4b eb3c b31a 593d
00000320: 3f6b 143d 3430 de3c e53d 273d ac09 983c
00000330: f54a d43c 986a 543d d6a3 6a3d 8733 b53d
00000340: defd 703d af21 943d 2735 033d bd2f 3e3d
00000350: 0252 ed3c 7a9a d03d 5b67 b03c 5426 353d
00000360: e2dd ee3c f42b 5e3d 6b7b 9e3d ebce 023d
00000370: 471a 2f3d 7a86 cc3c 25c8 103d d9da 133d
00000380: cf9b 233d bf89 453d 94ac e43c c097 eb3d
00000390: 0993 353d 6203 223d df05 583d 51fd 243d
000003a0: 3956 683d 6bd7 273d 7ade 953d 0b1a 183d
000003b0: 67b1 f13c 9e4f 563d 02e9 a63c f19d 613d
000003c0: a7da 113d ea37 b63c f4df 323d 10b9 313d
000003d0: 5053 283d 51b7 753d c1ed 223d b9ff 083d
000003e0: f95f 643d 617f f13c 1645 db3c 7723 a13d
000003f0: 117f 013d 42e0 503d 8b10 173d f6db 243d

fc2.weight f4 [128, 256]
-0.049970847 0.013306914 -0.041087497 -0.0094056325 -0.053421818 -0.030169405 -0.020949678 0.033719268
0.0365721 -0.044609837 -0.044568103 -0.025561906 -0.028950745 -0.022590717 -0.005381515 0.04483825
0.051417306 0.0021433765 -0.017083617 -0.025469726 -0.03013917 0.054382782 0.045644112 -0.044966567
-0.037384234 -0.014113677 0.03783206 0.03460935 -0.037132297 0.017304348 0.052674897 -0.014149113
-0.022733841 -0.0013355649 0.058102343 0.024499338 0.053587977 -0.009618264 0.054248545 0.025613794
-0.005077621 0.021742895 0.01250931 0.032592364 -0.010215975 -0.056113265 0.01678844 -0.057550777
-0.06300218 0.060089525 -0.04490353 -0.052997567 -0.05121643 0.030932557 0.04490894 0.03804962
-0.05965957 0.015799845 -0.03162691 -0.023811469 0.01830934 0.030980423 0.027903317 -0.023304336
0.04887603 0.044633854 0.02717236 0.016019182 -0.05803225 -0.056951847 -0.007874997 0.03739024
-0.05881067 -0.04481424 0.017735824 -0.00088962744 -0.0013814037 -0.05415921 -0.052606195 0.039352942
0.016168695 -0.037634242 -0.04577883 -0.05089323 0.049185555 0.036255147 0.04561952 -0.016961321
-0.00856166 0.03965303 0.05431808 -0.03527792 0.026675591 0.038515355 0.014267449 0.0067610946
-0.025611013 -0.037163697 -0.027470613 -0.0066189095 0.043126907 0.0022471158 0.0022910612 0.059574172
0.011736865 -0.00861105 -0.039054096 0.0133855995 -0.034853946 0.032585315 -0.0022328498 -0.04123578
0.051937737 -0.008868367 0.011263177 -0.04398216 -0.03931545 -0.03251424 -0.056589846 -0.016468232
0.035555135 -0.050667703 0.017921682 0.060015246 -0.023149239 -0.05600729 0.06250301 -0.009549549
0.0345745 0.0058585224 0.03959389 0.0015352482 0.0075436793 0.02286311 -0.03748072 -0.0043107215
-0.03067828 0.059046444 0.040911578 -0.0014029194 0.026616532 0.024372874 -0.027561326 -0.03870864
-0.008604656 0.038410142 -0.014670717 -0.0063934657 0.05291009 -0.045054283 0.0412797 -0.06155842
-0.008596076 0.04631561 0.0020132205 -0.018327566 -0.014799908 0.0038043398 0.028300056 -0.04467843
-0.019813102 -0.017642286 -0.010300764 -0.0365518 0.059040643 0.023425888 0.038674112 0.043289606
-0.0020441597 0.032020107 0.017010422 -0.01483264 0.009556217 0.04920917 -0.047430553 -0.027163913
-0.04411177 0.029531399 -0.043766536 0.043736763 -0.0027961673 -0.014189648 0.056786243 -0.033634823
0.04601214 0.0026652652 -0.04453822 -0.008860773 -0.021767229 0.040431686 -0.022308657 -0.029058235
0.025740862 0.0027616355 -0.01271398 -0.03117962 -0.044291947 -0.004939136 0.04846049 -0.058145136
-0.016909532 -0.056807972 0.044192437 0.009898611 0.031249283 -0.06112008 0.042823847 -0.0035918271
0.0024098346 -0.008986895 0.036035925 -0.006446794 -0.015106122 -0.0044862377 -0.009546008 -0.06355687
0.017304853 -0.053120784 0.034726076 0.052950233 0.0493474 -0.017128592 0.05653616 0.0352162
0.03547923 0.04895412 0.044723686 0.030506583 -0.047286473 -0.004258266 0.04631641 0.0125636365
-0.03959831 -0.030954942 -0.019607643 -0.05697044 -0.049788438 0.025046896 0.03370125 -0.053184845
0.024221862 0.05208714 -0.03438877 0.044219043 -0.034290962 0.020074507 0.0068514226 -0.036969885
0.005886833 -0.036710568 0.0076970086 0.059416037 -0.015474165 0.059050653 -0.045917626 -0.041394196
00000000: 3bae 4cbd 3e05 5a3c 5d4b 28bd 151a 1abc
00000010: d6d0 5abd d425 f7bc a99e abbc 371d 0a3d
00000020: a0cc 153d ceb8 36bd 0b8d 36bd 3467 d1bc
00000030: 1d2a edbc 2b10 b9bc 6b57 b0bb 50a8 373d
00000040: f49a 523d e477 0c3b f1f2 8bbc e3a5 d0bc
00000050: 6ce6 f6bc 7bc0 5e3d 52f5 3a3d dd2e 38bd
00000060: 3620 19bd 0d3d 67bc caf5 1a3d 89c2 0d3d
00000070: 0918 18bd d9c1 8d3c a2c1 573d aed1 67bc
00000080: 523c babc 1f0e afba b9fc 6d3d d6b2 c83c
00000090: 117f 5b3d ec95 1dbc b933 5e3d 05d4 d13c
000000a0: 2c62 a6bb 281e b23c d9f3 4c3c 927f 053d
000000b0: e860 27bc 06d7 65bd e987 893c 5dba 6bbd
000000c0: 4907 81bd 6f20 763d c4ec 37bd fa13 59bd
000000d0: 52c8 51bd 4666 fd3c 70f2 373d ebd9 1b3d
000000e0: 985d 74bd ad6e 813c 388b 01bd 4510 c3bc
000000f0: 78fd 953c a8ca fd3c 7f95 e43c bce8 bebc
00000100: 3b32 483d fdd1 363d 9298 de3c a93a 833c
00000110: 39b3 6dbd 5746 69bd 2206 01bc 8226 193d
00000120: 75e3 70bd 238f 37bd b84a 913c e335 69ba
00000130: 3710 b5ba 0cd6 5dbd 9879 57bd 8d30 213d
00000140: 3674 843c 5d26 1abd 9582 3bbd 6b75 50bd
00000150: cb76 493d 4780 143d 89db 3a3d 78f2 8abc
00000160: 3446 0cbc 376b 223d a37c 5e3d 957f 10bd
00000170: c586 da3c 47c2 1d3d 05c2 693c 2c8c dd3b
00000180: 30ce d1bc f638 18bd 0d0a e1bc 70e3 d8bb
00000190: d7a5 303d 5944 133b a125 163b 0c04 743d
000001a0: fb4b 403c 5d15 0dbc 30f7 1fbd 464f 5b3c
000001b0: 03c3 0ebd 2e78 053d 0155 12bb d9e6 28bd
000001c0: aabc 543d a14c 11bc 3089 383c a326 34bd
000001d0: 3d09 21bd a72d 05bd c1ca 67bd 63e8 86bc
000001e0: 43a2 113d f088 4fbd 7ed0 923c 8cd2 753d
000001f0: 79a3 bdbc e667 65bd 9401 803d b675 1cbc
00000200: fe9d 0d3d d9f8 bf3b 342d 223d 623a c93a
00000210: f830 f73b 6b4b bb3c 6285 19bd f440 8dbb
00000220: 0451 fbbc afda 713d e692 273d 2ae2 b7ba
00000230: ea0a da3c 9fa9 c73c 4ac8 e1bc f38c 1ebd
00000240: 8bfa 0cbc f453 1d3d 725d 70bc 4780 d1bb
00000250: 40b8 583d d78a 38bd e714 293d af24 7cbd
00000260: 8ed6 0cbc 70b5 3d3d 3cf0 033b b123 96bc
00000270: 507b 72bc 3b52 793b 85d5 e73c bb00 37bd
00000280: 164f a2bc 8e86 90bc 89c4 28bc 57b7 15bd
00000290: 9ad4 713d a6e7 bf3c bf68 1e3d 7150 313d
000002a0: 4ff7 05bb 8427 033d 7159 8b3c 9a04 73bc
000002b0: ae91 1c3c 8e8f 493d 8a46 42bd db86 debc
000002c0: 8bae 34bd d5eb f13c 8a44 33bd 5225 333d
000002d0: e73f 37bb b37b 68bc b198 683d abc4 09bd
000002e0: 3a77 3c3d bbab 2e3b b56d 36bd c72c 11bc
000002f0: 3051 b2bc b29b 253d a5c0 b6bc 890b eebc
00000300: 80de d23c 8efc 343b 4c4e 50bc 676c ffbc
00000310: 796b 35bd 7ad8 a1bb 827e 463d 9829 6ebd
00000320: dc85 8abc 7aaf 68bd 2103 353d c92d 223c
00000330: 7ffe ff3c 0d59 7abd 0f68 2f3d dc64 6bbb
00000340: 51ee 1d3b c53d 13bc 689a 133d a13f d3bb
00000350: ab7f 77bc 4a01 93bb dc66 1cbc 1b2a 82bd
00000360: e8c2 8d3c 2e95 59bd ee3c 0e3d 58e2 583d
00000370: 8020 4a3d 4351 8cbc 7692 673d dd3e 103d
00000380: ab52 113d 1e84 483d 2f30 373d f1e8 f93c
00000390: 76af 41bd ed88 8bbb 47b6 3d3d b6d7 4d3c
000003a0: d631 22bd 3895 fdbc 35a0 a0bc d659 69bd
000003b0: f6ee 4bbd 262f cd3c 520a 0a3d 5ad8 59bd
000003c0: ed6c c63c 5359 553d 3ddb 0cbd 071f 353d
000003d0: ae74 0cbd 4b73 a43c e681 e03b bc6d 17bd
000003e0: 56e6 c03b d25d 16bd 3037 fc3b 3b5e 733d
000003f0: 5a87 7dbc 19df 713d 1f14 3cbd f68c 29bd

fc2.bias f4 [128]
-0.010022274 -0.02534738 0.0025192855 -0.057265095 0.05070352 0.046063717 0.0028724256 0.033920966
-0.037225198 0.050188225 -0.045459297 0.050796036 -0.060986057 0.015994743 -0.014468851 0.030222787
0.04023018 0.033165533 -0.0004569505 -0.04377929 -0.0121058 0.0029860197 -0.04757667 -0.032593116
0.039036877 0.014024256 -0.0026435112 0.020788115 0.016545655 0.007841364 -0.06195568 -0.047581073
0.030934218 -0.027843084 0.04612206 0.060335066 0.022062816 0.060318213 0.0015621412 0.019015549
0.0013161554 -0.02173924 0.0013452839 0.036576353 -0.010049336 -0.0013187397 0.037421256 -0.006979071
-0.016274316 0.05944536 0.022674933 0.031187937 0.037501138 -0.0007222247 0.06185716 0.012959731
0.047760345 0.020720562 -0.033304334 -0.05190393 -0.058576494 0.05912805 0.006741539 -0.035762638
-0.020465566 0.02742844 -0.03499138 0.04494604 0.025957238 -0.048344646 -0.05109007 -0.048785165
0.00532178 -0.007391682 -0.008432569 0.06151681 0.057418607 0.057933133 0.054795053 -0.007474383
-0.0250398 -0.05292867 0.003913373 -0.02742457 0.028944572 -0.027531913 0.03480485 0.04802651
-0.031958472 -0.017789386 -0.011698345 -0.058338065 0.012720815 -0.036715064 -0.033939425 -0.027410084
-0.04900437 0.05341137 0.02954996 -0.008638915 -0.026402878 -0.013134674 0.020461382 -0.057308163
0.057317372 -0.051117525 0.0068907486 0.035787553 -0.05319586 0.048629716 -0.035247773 0.060750976
-0.03761102 0.0024178508 -0.013662623 -0.029950825 -0.036640026 0.017331831 -0.03775895 0.044204753
-0.021042774 -0.008545034 0.060161557 0.017817017 0.05979665 -0.006888166 0.0020401278 0.031077238
00000000: 7734 24bc 4fa5 cfbc 991a 253b ce8e 6abd
00000010: 7fae 4f3d 4fad 3c3d 4e3f 3c3b b6f0 0a3d
00000020: 7379 18bd 2b92 4d3d 8733 3abd 810f 503d
00000030: 84cc 79bd 6807 833c c20e 6dbc c795 f73c
00000040: 67c8 243d 95d8 073d dc92 efb9 ea51 33bd
00000050: 6857 46bc 19b1 433b c1df 42bd 5c80 05bd
00000060: 22e5 1f3d fec5 653c c23e 2dbb d64b aa3c
00000070: c18a 873c 1079 003c 3dc5 7dbd 5fe4 42bd
00000080: c269 fd3c 2e17 e4bc 7cea 3c3d e721 773d
00000090: 14bd b43c 3b10 773d c3c0 cc3a 7fc6 9b3c
000000a0: d982 ac3a 7e16 b2bc 3d54 b03a 16d1 153d
000000b0: f8a5 24bc 90d9 acba 0847 193d b1b0 e4bb
000000c0: b751 85bc fa7c 733d c8c0 b93c d87d ff3c
000000d0: cb9a 193d ae53 3dba ef5d 7d3d 0d55 543c
000000e0: 5aa0 433d 2bbe a93c 206a 08bd 3799 54bd
000000f0: e8ed 6fbd 4130 723d 21e8 dc3b d87b 12bd
00000100: 67a7 a7bc 9cb1 e03c 1f53 0fbd 5719 383d
00000110: 46a4 d43c 0905 46bd d243 51bd f4d2 47bd
00000120: 5462 ae3b ec35 f2bb c228 0abc 0df9 7b3d
00000130: c62f 6b3d 4b4b 6d3d c770 603d abeb f4bb
00000140: 4420 cdbc bccb 58bd c13b 803b 7ea9 e0bc
00000150: 2b1d ed3c 9b8a e1bc 888f 0e3d 72b7 443d
00000160: e3e6 02bd 0cbb 91bc 6aaa 3fbc e5f3 6ebd
00000170: f76a 503c 8962 16bd 1104 0bbd 1d8b e0bc
00000180: ceb8 48bd e1c5 5a3d c212 f23c 3c8a 0dbc
00000190: d94a d8bc d132 57bc a19e a73c f7bb 6abd
000001a0: 9fc5 6a3d 9c60 51bd cacb e13b f895 123d
000001b0: e7e3 59bd f42f 473d f85f 10bd 04d6 783d
000001c0: 030e 1abd ce74 1e3b 32d9 5fbc 6f5b f5bc
000001d0: da13 16bd 7cfb 8d3c 21a9 1abd 0b10 353d
000001e0: e561 acbc 7800 0cbc f76b 763d fef4 913c
000001f0: 55ed 743d 20b6 e1bb aab3 053b b195 fe3c
